net_params.pkl (torch_old, 862 bytes, 3 tensors)

0.weight f4 [10, 1]
00000000: d6f8 13bf 18b9 89bf 0bef 9c3e 4d18 afbd
00000010: ebcf 78bf a02b 7b3e 3728 30bf e648 11bf
00000020: a17a 8c3f f0b4 7f3f
-0.5780157 -1.0759611 0.30651125 -0.08549557 -0.9719226 0.2452836 -0.68811363 -0.5675186
1.0974923 0.99885464

0.bias f4 [10]
00000000: 459c bb3e 6ffe c43d ac30 b73d d275 1a3e
00000010: 53e5 253f a827 aabe e23c a0be 9cd6 31bf
00000020: 026c 813e ac24 c1be
0.36642662 0.09618842 0.0894483 0.15084007 0.64803046 -0.3323338 -0.3129645 -0.6946809
0.25277716 -0.3772329

2.weight f4 [1, 10]
00000000: e46e b13d 3675 353f 751d de3d daea 18be
00000010: b3b2 e23d c6c3 6c3e 9ead f73e 643c e3bd
00000020: c2e2 1f3f 9985 1c3f
0.08663729 0.70881975 0.10845462 -0.14933339 0.110692404 0.23121557 0.48374647 -0.11095503
0.6245538 0.61141354
