net_params.pkl (torch_old, 862 bytes, 3 tensors)

0.weight f4 [10, 1]
000000 08 ba b2 3e 05 8f 79 3f d4 02 d7 be 44 9c db 3e
       0.34907556 0.97483855 -0.41994345 0.4289266
000010 af 19 af bf 6c 6b 1d 3f 3f d1 da be d8 dc 01 3e
       -1.3679713 0.6149204 -0.42737767 0.12681901
000020 2a b9 23 3f 8d d3 5c 3f
       0.6395441 0.862603

0.bias f4 [10]
000000 a2 49 39 bf 63 93 1f 3f 5a 53 72 bf 3c 44 fd be
       -0.7237798 0.6233427 -0.94658434 -0.4946612
000010 00 fd 2c be 3c 49 44 3f 25 7f fa 3e 9c 44 a8 be
       -0.16893387 0.76674247 0.4892513 -0.32864845
000020 a5 db 23 bf 4c ee a7 be
       -0.64007026 -0.32798994

2.weight f4 [1, 10]
000000 c7 ec 81 be 08 78 a3 3e fc a2 99 bd 4d 7a 98 be
       -0.2537596 0.31927514 -0.0750179 -0.29780808
000010 f0 04 85 3f 40 4f c6 3d f9 5f 1a be 0a 68 0c 3e
       1.0392132 0.096830845 -0.15075673 0.13711563
000020 42 15 5d be ae df 53 3f
       -0.2159014 0.82763183
