PytorchModel_autoencoder.pkl (torch_old, 14775 bytes, 8 tensors)

weight f4 [16, 29]
00000000: bad7 21bd 3d22 eb3d 3916 b0bd 4d91 543f
00000010: 412d 953e 6882 5bbc 0ec9 ea3d 6be9 613e
00000020: 6457 ee3e daf4 2abf e097 883e 73be 15bd
00000030: e4a2 56be 3a74 1abe be7b 1a3c 3983 0c3f
00000040: 3606 cebe a2f6 44bf e973 0c3f 8d59 a33e
00000050: 5169 79bd 9d8f be3e b9d4 f7bd ec26 fb3c
00000060: e67d c2bb 4c63 93bb d3fa afbd 9273 d33d
00000070: 0ae6 2bbe 7cf9 08bc 3c40 d2be 698a a83e
00000080: 9d8c 76be 1ace b63e 9fb7 e4ba 45da 893e
00000090: fae9 abbd e902 963d 396c 813e 087e 5bbe
000000a0: 6364 e23e ca4e dbbd 2abb ca3e dafb adbd
000000b0: 89c9 a03e 5a09 193f 284f 983e 63eb 643e
000000c0: e8d6 94be 2c5b 18be f03c 2e3d a129 b4bd
000000d0: b060 98bc 5615 50be 04a9 57bd 0dff 243d
000000e0: 821a debd b625 d63e 72f2 8ebb f3d2 8e3d
000000f0: 5b5f c9bd 6305 3a3d 3f48 05be c720 cb3b
00000100: bad0 a2bc 1316 c4bc f7e0 98bc 6597 0ebe
00000110: b726 e03d 5c78 23be 04ae 6dbf 42a4 d2bd
00000120: 7ea8 b2bc 2777 2abe a1d9 4abe aff4 14bd
00000130: 2dca 70bd e14b 4b3d ddaa f7bc ec8c 0e3d
00000140: d19d 353d f814 b7bd 7f96 263d cfc7 153d
00000150: 3937 7bbd b11d a33d 35b3 3abe 6d96 62bf
00000160: 8d57 38be 1085 fb3e 5695 653e 4b92 05c0
00000170: 1100 fec0 067f a63e 2e65 ed3e e1c3 a2be
00000180: 22c4 6c3f 19df 8f3e 9695 46bf 0417 3a3d
00000190: ef57 7cbe cc96 debe c678 2a3e 07bf f63e
000001a0: 8cbd af3f 22c8 8c3f b0d0 843e 7a75 32be
000001b0: e464 67be 29e2 e2bd d3a0 a23f 8364 e43e
000001c0: 2a74 13bf 2f40 0b3f f270 efbd f251 98bf
000001d0: dcf1 083e 03ba d0be 059d 683e aada 47bb
000001e0: f90f 31be b8e3 2fbf 610b ba3f caec eb3f
000001f0: bbbd 103f e6ec 6e3f 4acd 3ebe 2373 463e
00000200: e0a0 993e 3efa 013e ea9e 8a3d 6003 0b3f
00000210: 0463 133f c552 933f 7278 7e3e 5780 67bf
00000220: 2667 8a3f 91f2 4f3f a0fd cdbe 22d6 473d
00000230: 6c1e 97bd ae42 42bd ac68 5abc ca33 8a3c
00000240: fcc6 0e3d 4745 543e 2487 8a3e bf50 563e
00000250: ceda 05bc c733 9e3e 094a 2abe 8eda e3be
00000260: 71b8 633d 18cf 40be ab89 963e 504c 81bc
00000270: 6dee b5bb 6a0f 7ebe e8f3 0ebf 3d95 e93f
00000280: ebda 90be b4ad a7be 6896 58be d861 393e
00000290: 9203 b7be 2cdb 50bc c7b8 813d e132 e73d
000002a0: 32f9 023c 0a43 6e3e 0915 d33d fcb5 68be
000002b0: ca1f 653e 695d 9dbd b644 e2bd cce3 1e3e
000002c0: ca8f 99be d663 343e 4e65 39bd b8d3 bbbd
000002d0: 5dac 2abf f55f 363e f23c 4a3b e694 67bf
000002e0: 4c2b ac3e d6ab 20bf 4a83 003d 06d4 04bf
000002f0: e5dd 8b3c c6a0 2cbf 0396 4cbf 7b3a 1abe
00000300: bc25 90bc a7ed f23d 1c30 f53d bcd1 9abc
00000310: b28c c2bc 34ef 353d 5e1a 3bbc 5426 1c3d
00000320: 80e0 0cbd 8c03 783d faa7 c5bd a701 7ebf
00000330: 6657 35c0 669f c83f dbcd 91bd 1b30 9f3f
00000340: 6c12 013f 2e0c f63f dc39 2ac0 fe86 3c3e
00000350: daa9 84bf c720 32be f16a e43e 2b44 c9be
00000360: c646 083d 622a 16bf 8bab 553f 4f73 873d
00000370: 7679 933f 5a6a e93d 3488 cdbf cbdd 583f
00000380: 10ab 3cbf f364 b9bf 8564 5cbf 626a e7bf
00000390: ac0b 9bbf 165c 393c ac87 0e3f c185 29bf
000003a0: 54f3 e5be 07ae 4b3e 8abf f83d 2b62 743e
000003b0: 7f11 cebe 086c 283f a0b1 fabe 3263 9bbe
000003c0: 1eae 423f 0a9d efbe def3 81c1 78a7 cebf
000003d0: 7c65 6440 c8a5 bb3e bb82 f3bd 3a9d 01bf
000003e0: 50a4 a2be 5895 fbbe b606 f6bf 2920 a43f
000003f0: 47e7 0c3e dae6 223d c2e9 b53d 4353 b5be
-0.039512374 0.1148114 -0.08597989 0.8303421 0.29136088 -0.0133977905 0.114641294 0.22061698
0.4655105 -0.66779864 0.2667837 -0.03655858 -0.20960575 -0.150834 0.0094289165 0.5488773
-0.40239114 -0.7693883 0.54864365 0.3190426 -0.060891453 0.37218943 -0.121011205 0.030658208
-0.0059354184 -0.004497921 -0.08592763 0.10324778 -0.16786972 -0.008360263 -0.41064632 0.329181
-0.24077077 0.35704118 -0.0017449743 0.2692434 -0.08394237 0.07324774 0.2527788 -0.21434796
0.44217214 -0.10708387 0.3959592 -0.084953025 0.3140376 0.59779894 0.2974789 0.22355418
-0.2907021 -0.1487853 0.042538583 -0.087970026 -0.018600792 -0.20320639 -0.05265142 0.040282298
-0.108449 0.41825646 -0.004362398 0.06973829 -0.09832641 0.045415293 -0.13015841 0.0061989757
-0.01987492 -0.023936307 -0.01866196 -0.1392494 0.10944884 -0.15963882 -0.9284365 -0.10285236
-0.021808859 -0.16647016 -0.19809581 -0.03636616 -0.05878656 0.04963291 -0.030232841 0.034802362
0.04433996 -0.08939546 0.040670868 0.036567505 -0.06133196 0.079646476 -0.18232425 -0.8851078
-0.18002148 0.49124956 0.22420248 -2.087054 -7.937508 0.32518786 0.46366256 -0.3179007
0.92486775 0.28099898 -0.77572 0.045432106 -0.24642919 -0.43474424 0.16647634 0.48192617
1.372972 1.0998576 0.25940466 -0.17427626 -0.2259708 -0.11078293 1.270533 0.44607934
-0.5759913 0.5439481 -0.116914645 -1.1900008 0.13373512 -0.40766916 0.22716148 -0.0030495324
-0.1729125 -0.68706846 1.4534723 1.8431637 0.56539506 0.9333023 -0.18632999 0.19379859
0.3000555 0.12693116 0.06768592 0.54302025 0.5757296 1.1509634 0.24850634 -0.90430206
1.0812728 0.812295 -0.40232563 0.048788197 -0.073788494 -0.047426872 -0.01333062 0.016870398
0.034857735 0.20729552 0.2705623 0.2092924 -0.008169843 0.30898878 -0.16629805 -0.44502681
0.05559582 -0.18829 0.29401907 -0.015783459 -0.005552104 -0.24810567 -0.5584092 1.8248669
-0.2829202 -0.32749712 -0.21151125 0.1810373 -0.3574491 -0.012747567 0.063340716 0.11289001
0.007993983 0.23267761 0.103067465 -0.22725672 0.22375408 -0.07683832 -0.11048262 0.15516585
-0.29992515 0.1761621 -0.045262627 -0.091712415 -0.66669255 0.17810042 0.003085908 -0.90461576
0.33626783 -0.627622 0.031375207 -0.5188602 0.017073581 -0.6743282 -0.799164 -0.15061371
-0.017596118 0.11861735 0.11972067 -0.018898837 -0.02374873 0.044417575 -0.011419861 0.03812249
-0.034393787 0.060550258 -0.096511796 -0.9922127 -2.8334594 1.5673645 -0.07119342 1.2436556
0.50418735 1.9222467 -2.6597815 0.1841087 -1.0364335 -0.17395316 0.4461284 -0.3930982
0.03327062 -0.5865842 0.8346488 0.0661379 1.1521442 0.11397238 -1.6057191 0.8471343
-0.7369852 -1.4483932 -0.8609088 -1.807934 -1.2112937 0.011313459 0.5567577 -0.6621972
-0.44912207 0.19890605 0.12145908 0.23865573 -0.40247723 0.6578984 -0.48963642 -0.30349118
0.7604693 -0.467995 -16.244076 -1.6144857 3.568694 0.3664992 -0.11890169 -0.50630534
-0.31765985 -0.49137378 -1.9220798 1.2822315 0.137601 0.03977094 0.088824764 -0.35415086

bias f4 [16]
00000000: 237a 3cbf c29f 1ebe 08c6 9b3f 392f 0741
00000010: 0df9 8bbf 2e53 e4bf bcf8 74be b6a3 f441
00000020: 7a8c 4841 a2cc e2c1 2162 d1c1 17e2 debf
00000030: d758 7b3e bac1 dcc0 6cca 04c2 838a 21be
-0.73623866 -0.1549063 1.2169809 8.449029 -1.0935379 -1.7837884 -0.2392301 30.579937
12.534296 -28.349918 -26.172915 -1.7412747 0.24545608 -6.8986483 -33.197678 -0.15775494

weight f4 [8, 16]
00000000: 615a c13f f87e 84be 17bb a7bd 8b8e c4be
00000010: 59f4 32be 5617 06bf 4e31 223e 44f4 acbd
00000020: 1759 3a3e d18e a93e 3872 593d 7b98 2c3f
00000030: f1aa aa3e 2c72 bb3e 31a3 e63e 2441 a33d
00000040: 5193 783e ee7c cd3d f07a 9a3d bdaf 3e3f
00000050: 51d5 3e3f f871 a5be ee7c acbe ce9e 69bf
00000060: b481 00be 8d1a c6bd 2d9f c4be e992 a83e
00000070: ab61 003d a7af 87be 9057 bebf 4e1f e03e
00000080: 824c 1d3e 0a25 f83e 892c d13d f9da cebe
00000090: b443 81be 3fa3 343b d165 d73e d389 6e3e
000000a0: 4421 8fbe 6b45 883e 8f10 de3d 8272 d83c
000000b0: 27ad c53e f291 73bd b8bf dabe 3e38 6f3f
000000c0: b6ce 30bc 2019 b23e 27bf 13bf 3a0d 6fbb
000000d0: 6d17 1c3d 073f e73d 0777 d93d 0e33 9d3d
000000e0: 1a32 613f 8764 623d 1772 173d 82ee 2abd
000000f0: 456c 953d 374e f9bd f5e4 72be 5af7 fe3e
00000100: 97aa 98bf 7606 c63e 7c05 993d ff7b f13c
00000110: 9424 623c 77c5 ebbe d9d3 383f f70c ac3e
00000120: 818a b0bd 56f5 33be 32c5 9ebe b278 f83e
00000130: ca92 cb3b 568c f3bd 1d51 acbf 0e66 2bbe
00000140: 66a2 63bd f46e 1abf f667 1f3e 5a7e 013f
00000150: 7e2d c43d 65ed 163f 7910 c93f 8bda 41bf
00000160: c23a 89be 99df f0bf 0239 4ebf 8115 36bf
00000170: 361f 02be 10d7 24bf 9052 543c 49bb 5dbf
00000180: a511 eabe 4b02 98bf d07a b73d 1564 32be
00000190: 1012 923c 652c 98bd bf79 42be 4756 b5bf
000001a0: 36d9 443e 94c4 5a3f 0036 f03d d38e 853d
000001b0: b928 193f fec1 8c3e 2d1b d8bf ac02 073e
000001c0: c9ca dabd 3e83 08bf ab4b cb3d 3678 623d
000001d0: d6ea e73c fd19 c8bd fc9d 633c c13e 84bd
000001e0: 2912 d3bc 9df5 4b3e 5ece f63d 8cf2 893d
000001f0: 1141 34bf afb0 24c0 50b0 5e3f 2c0f aa3e
1.5105706 -0.2587812 -0.081899814 -0.38390002 -0.17476024 -0.5237936 0.15839121 -0.084450275
0.18198048 0.33116773 0.053087443 0.67420167 0.33333543 0.36610544 0.4504638 0.07971409
0.24274947 0.10033594 0.0754298 0.74486905 0.74544245 -0.32313514 -0.33689064 -0.9125794
-0.12549478 -0.09673033 -0.3840269 0.32924584 0.031343143 -0.265012 -1.4870472 0.43773884
0.15361217 0.4846576 0.102135725 -0.40401438 -0.25246966 0.0027563123 0.42069867 0.23294763
-0.27955067 0.26615462 0.10843002 0.02642179 0.38608667 -0.059465356 -0.42724395 0.93445194
-0.010791471 0.34784794 -0.5771355 -0.003647639 0.038108278 0.112913184 0.10618406 0.076757535
0.87967074 0.05527165 0.03697404 -0.041731365 0.072960414 -0.121731214 -0.23720153 0.4979809
-1.192706 0.38676804 0.07471749 0.029478071 0.013802666 -0.4604909 0.72198254 0.3360364
-0.086201675 -0.17574057 -0.31009823 0.48529583 0.006212567 -0.11892001 -1.3462254 -0.1673815
-0.055574797 -0.6032555 0.15567002 0.5058342 0.095789894 0.58955985 1.5708152 -0.75724095
-0.2680264 -1.8818237 -0.80555737 -0.7112656 -0.12707219 -0.6439066 0.012959138 -0.866139
-0.45716587 -1.18757 0.089589715 -0.17420991 0.017830878 -0.074303426 -0.18991755 -1.4166955
0.19223484 0.85456204 0.1172905 0.06521382 0.5982776 0.27491754 -1.6883293 0.13184613
-0.106832094 -0.5332526 0.09926542 0.055290423 0.02831022 -0.09770582 0.013892647 -0.06457282
-0.025765495 0.19917913 0.1205108 0.06735715 -0.70411783 -2.573284 0.8698778 0.332147

bias f4 [8]
00000000: 4f6f 753f 8d61 8fbf a24e 83bc 8fa9 8abe
00000010: 0383 06c0 1e5a 96bf 269c 3b3f 4eec b13e
0.9587297 -1.1201645 -0.016028706 -0.27082488 -2.1017463 -1.1746252 0.7328514 0.347506

weight f4 [16, 8]
00000000: c008 98be d699 66bd a400 ee3d 07b6 7d3e
00000010: 6545 8cbd 6db4 01be c3c2 81bf 3819 81be
00000020: ee44 6a3e 916d c439 189d 083e 891d 083e
00000030: 84a0 713e e20d 8d3e 2433 a8bc 7271 84bd
00000040: 4adb f93e 633b 4a3e 4905 32be 9e9d 23be
00000050: 5be4 373f b96a b3be 4e7a 16bc d625 8e3d
00000060: 198d b73f c2ec cfc0 479c aebe d41b 7e3e
00000070: 8a44 203f 4649 87bf c198 87bc 9ae2 8d3f
00000080: e106 ca3f 8e78 98be fe76 00bf 82d8 3d3e
00000090: e845 3bbf f6dd e6bf 3867 fc3e 1968 e4c0
000000a0: d26a cbbd 74de 0d3e 846c 083f 4c0f 373e
000000b0: 0b21 bebd dfa3 453b 00ff 793e b7b6 82bd
000000c0: 56a9 693e ffdc 11bf 81d3 c4bf 36e2 45bf
000000d0: 83af 953e b2a6 073f 760d 2cbf 0fd9 9ac0
000000e0: c7ae 903e f88b cabe 74b2 be3e 6e80 07bf
000000f0: 5de8 9fbd 53ca c4bf 4b65 c83e 555d 5c3f
00000100: 7800 f83d 039d aabc cc1e 70be 08d5 43be
00000110: 916f cc3d fa5a 1abd 236f ba3e 8b93 89bf
00000120: 9549 8dc0 95e2 23bf 5af5 603b 6ee8 063f
00000130: 46c8 6940 bf76 b8bf 9f90 3340 8c6e dabe
00000140: 9979 dbbe 52d6 16be 5a2d 073d 9105 333d
00000150: d9da 003f 9cda c6bd edc5 2a3d f49d f3bd
00000160: a11e 11bd 0b60 cb3c 2638 353e 616f 0a3e
00000170: d55f 913d bd47 3bbd 17a7 6dbe cbe4 773f
00000180: 583d 40be 91ae 7f3e 6162 383f 5e57 b4bf
00000190: f3e0 6ebd a255 97bc 2554 27be d720 09bd
000001a0: a1e2 6cbe f533 823f b78f 8bbe f6b3 0a3e
000001b0: a346 ebbc 99e0 623e 7f1e 583d 8c5c 28be
000001c0: f0a6 ebbd 95e7 9abe a5bc b0bb 9506 a9bd
000001d0: 2fec 92be b7d3 fa3e d555 803e 30c8 00be
000001e0: 3782 cfbd 7e51 e73b 93e8 ef3d aa3d 2e3e
000001f0: b455 f43c 5ae9 efbd 49dd 14bf 64a3 b2bd
-0.29694176 -0.056299053 0.11621216 0.24776469 -0.068491735 -0.12666483 -1.0137562 -0.25214553
0.22877857 0.00037465667 0.13341177 0.13292517 0.23596388 0.27549654 -0.020532198 -0.064669505
0.48800117 0.19749217 -0.17384829 -0.15978095 0.7183282 -0.3504236 -0.009184433 0.069408104
1.4339935 -6.497651 -0.34103605 0.24815303 0.6260458 -1.0569236 -0.01655233 1.1084778
1.5783349 -0.29779476 -0.5018157 0.18539622 -0.73153543 -1.8036487 0.492975 -7.137707
-0.09932484 0.1385439 0.5329058 0.17876929 -0.09283646 0.003015749 0.24413681 -0.06382506
0.22818503 -0.5697784 -1.5377046 -0.77298295 0.29235467 0.5298873 -0.6720804 -4.8389964
0.28258345 -0.39559913 0.37245524 -0.52930343 -0.07807992 -1.5374244 0.3913978 0.86079913
0.121094644 -0.020826822 -0.23449248 -0.19124234 0.09982217 -0.03768442 0.36412916 -1.0748152
-4.415232 -0.6401761 0.0034325928 0.5269841 3.6528487 -1.4411238 2.805702 -0.42662466
-0.4286621 -0.14730194 0.033002235 0.04370648 0.50333935 -0.09709665 0.041692663 -0.118953615
-0.0354296 0.02482607 0.176972 0.1351905 0.07098357 -0.04572271 -0.23208271 0.96833485
-0.18773401 0.24968936 0.72025114 -1.4089162 -0.058319997 -0.01847345 -0.16340692 -0.033478584
-0.23133327 1.0172106 -0.27258083 0.13545212 -0.028720206 0.2215599 0.05276346 -0.16441554
-0.1150645 -0.30254808 -0.005393582 -0.082532085 -0.2869582 0.4898965 0.25065485 -0.12576365
-0.101322584 0.007059275 0.11714282 0.1701571 0.029826023 -0.1171443 -0.58150154 -0.087225705

bias f4 [16]
00000000: 62aa 1ac0 bd25 703f adb1 643f fc3f 55c1
00000010: 3be3 99c0 0bff a03c 6209 10c1 e763 49c1
00000020: 5826 8ac0 380d 2dc1 de62 873f 517c c6bf
00000030: 8c96 273f 146a 923e 8862 1640 eb5a d03f
-2.4166493 0.93807584 0.8933361 -13.328121 -4.808988 0.019652864 -9.002291 -12.58689
-4.3171806 -10.815727 1.0577047 -1.5506688 0.6546409 0.28596556 2.3497639 1.6277746

weight f4 [29, 16]
00000000: ec86 70c0 864d 993e 860e 02bd 81e5 d4bc
00000010: 60a2 153f ab32 4ebf 463f c13f e2a9 643f
00000020: 8611 3c3f 0e0e 383d 42e0 08bd 0f7b 9e3e
00000030: 4026 e7bd 08cc e43c c621 8c40 f5cb 74bf
00000040: 42c2 dac0 0f10 12bf 30a3 e0bd 16ab e6bd
00000050: ce13 b83e 1f62 17bf 27d0 05bf 281c 123f
00000060: e8dc 70bf 6183 94be 6ee8 07be d4ce c33d
00000070: 79c2 1dbe daa6 56bb 5b29 4f40 f331 51c0
00000080: 321b b0bd 123b af3e d143 a23d 02ac 50be
00000090: f29f babf b828 1340 d459 8c3f 7e95 873f
000000a0: 880a 1cbe bc80 2cbe d7ef 07bf 4b1b fb3e
000000b0: 04c6 b23d 6e60 b93e 0d31 a940 033b 943f
000000c0: 817b 1b3f 1190 e9be 9a13 163d 5393 0abf
000000d0: 4362 423f 8353 4b3d 21af fdbe e58b c73e
000000e0: 4939 cbbe 92ce 86c0 265a 3fc0 e3ea 24be
000000f0: b9a5 24bd b88c e93c 894b 18bf 7b7a 1fbf
00000100: eb56 6640 9f06 8bbe ef9d 2fbe be20 2e3f
00000110: eda9 56bd 4da5 d6bf 11e5 113f a16d 02c0
00000120: 8e75 b6be d590 60be 58f2 febe 683d 7a3f
00000130: 44b4 c7bb d28a 23bf 2d26 da40 190e 933f
00000140: 22c4 2dc0 4608 d53e 86c5 6f3e a7ff 903f
00000150: 594e d7bf 14c9 893f 1063 823f 1eed 6d3f
00000160: 2d23 dd3e 395d b83d 0e91 53bf 2d9e eabe
00000170: ca1b 093e f756 6fbf e006 07c0 ed26 c03e
00000180: 161f 55c0 b5a8 dcbf 0861 0bbe 23cb afbe
00000190: ba55 b6be d729 7fbf 6890 653f 0c5a 2540
000001a0: 6336 23bf b8ca 85be 4613 8c3d 52e0 5f3f
000001b0: 60ac debd f066 a53d 88ff 74c0 39b0 a63f
000001c0: bb98 483f 1714 1340 2508 033f ca6e 1d3e
000001d0: 34c4 55be 00b6 1c3f 8171 6bc0 5d8b 373f
000001e0: e3a9 1040 f638 a33d 25c9 48be 5622 95bf
000001f0: 2212 08bd 499e 9640 5867 0f3f 3774 f8bf
00000200: cb4b 143e 17cd 1d41 3cae b63e 27a2 c73e
00000210: 8284 5f3e ec03 623f 5790 ae3e d52b 3a40
00000220: aec0 003f 8689 2bbf 6c69 ac3e 1651 fd3e
00000230: 681b 48be cc50 a83e 45b5 04be c997 0a3f
00000240: 2391 823f e2f8 98c0 97ed 06bd de67 0bbf
00000250: 08cc 43c0 3007 35be 0830 2e40 5309 e2bf
00000260: 2fde 1e3f 8166 fd3e 680f 18bf 1bba d6be
00000270: 92bf 3c3e 7b71 f8bc 74f5 5a40 62cd 03bf
00000280: 612b b83d 6488 7c3d 03b6 31be c1ab 5dbe
00000290: 3ff2 bb3f 4bcb 983e 5a75 75bf 27fa 5d3e
000002a0: b781 eebe b311 7abd 76d7 bebc b141 1b3f
000002b0: 4703 5240 eac0 cdbb dd82 a4bd aff2 b2bf
000002c0: 481a 8f3e 8c1c 143d baf8 8fbe 105a 93bd
000002d0: 4582 3abe dcdc 2d3e 19f4 d43e 0564 463f
000002e0: 6532 bebb 4688 093e 2b5e 2bbf 2046 e83e
000002f0: e744 a73e 076f cc3d 110d ecbe abb2 f2be
00000300: c5ba 14bf 2002 273f b37e 8d3e 1d48 58be
00000310: 0af9 713c 0ee3 bb3d 6316 f23d f891 ed3e
00000320: 4596 26bd 719b 4d3c 42ae 0cbe 02e4 353e
00000330: 1c87 01c0 da09 0b3d 466d 243f 2486 e13d
00000340: df97 13c0 3cbf cf3f 4ae7 1440 8cf8 403e
00000350: 8eb8 19bf aecf 2bbf 00de 693f 53dd 063f
00000360: 4e7b 37be 2af1 9ebd 020a 91be edef 4d3e
00000370: 17db 873c 26a4 3d3e 17ae 663e 5b27 cebf
00000380: 966e 49be cc24 95bd 0a30 98bf cc31 33bc
00000390: 5423 20bf 1d2c e43e 4c4a e63e 458d d63f
000003a0: 5359 b73d 72f0 bebd 900a a13e 1f8e a8be
000003b0: ec28 863d 2703 10be fff3 f140 c45b f53e
000003c0: dc4d 9dbd d27c 50c0 72b2 b53c b2e3 e33d
000003d0: b550 89be ea9a 463f 4225 4640 686e 95bf
000003e0: edd2 893f 77da 7ebf ff5c 08be 3438 0fc0
000003f0: af72 603d b9b6 f23e ef7a bcbe 223c bfbf
-3.758235 0.29941958 -0.031752132 -0.025988342 0.5845089 -0.80546063 1.5097435 0.8932172
0.7346424 0.04493528 -0.033416994 0.3095326 -0.112865925 0.027929321 4.3791227 -0.95623714
-6.836213 -0.57055753 -0.109686255 -0.11263101 0.3595261 -0.59134096 -0.5227074 0.57074213
-0.94087076 -0.29006484 -0.13272259 0.09560934 -0.15406217 -0.003275326 3.2368991 -3.2686737
-0.08598937 0.34224755 0.07923091 -0.20378116 -1.4580061 2.2993603 1.0964913 1.0592496
-0.15238392 -0.16845983 -0.5310034 0.4904426 0.08729175 0.36206383 5.2872376 1.1580509
0.60735327 -0.45617726 0.036639787 -0.5413105 0.75931185 0.04964019 -0.49547675 0.3897392
-0.39692143 -4.212716 -2.9898772 -0.16105227 -0.040197108 0.028509483 -0.5949026 -0.62296265
3.599055 -0.2715349 -0.1715009 0.6801871 -0.052408148 -1.6769196 0.5699015 -2.0379412
-0.35636562 -0.21930249 -0.4979427 0.9774995 -0.0060944874 -0.638837 6.81716 1.1488677
-2.715096 0.41607875 0.23415193 1.1328019 -1.6820785 1.0764489 1.0186481 0.9293994
0.431909 0.09002156 -0.8264321 -0.45823804 0.13389507 -0.9349207 -2.1097946 0.37529698
-3.3300223 -1.7238985 -0.13611233 -0.3433467 -0.3561228 -0.9967322 0.8967347 2.583621
-0.6375486 -0.26131225 0.068396136 0.8745166 -0.10872722 0.080762744 -3.8280964 1.3022529
0.7835805 2.2981012 0.511843 0.15374294 -0.20875627 0.6121521 -3.6788027 0.71697026
2.260369 0.07969849 -0.1960798 -1.1651103 -0.033220418 4.706822 0.56017065 -1.9410466
0.14482038 9.862571 0.35679805 0.389909 0.21827891 0.88287234 0.34094498 2.9089253
0.50294006 -0.6700672 0.3367418 0.49475926 -0.19541705 0.32874143 -0.12959774 0.54137856
1.0200542 -4.780381 -0.032941427 -0.54455364 -3.059328 -0.17678523 2.7216816 -1.7659096
0.62057775 0.49492267 -0.5939851 -0.41938862 0.18432453 -0.03032755 3.4212313 -0.51485264
0.08992649 0.06165351 -0.17354588 -0.2164755 1.4683303 0.298426 -0.9588219 0.21677457
-0.4658334 -0.061052036 -0.0232961 0.6064711 3.28145 -0.0062791007 -0.08032773 -1.3980311
0.27949739 0.036160037 -0.2811945 -0.071949124 -0.18213756 0.16978782 0.41592482 0.7749637
-0.0058043473 0.1343089 -0.66940564 0.45366 0.32669756 0.09982114 -0.4610372 -0.47401938
-0.5809749 0.6523762 0.27635726 -0.21121259 0.014768848 0.091741666 0.11820676 0.46400428
-0.040670652 0.012549267 -0.13738349 0.1776276 -2.0238714 0.033944942 0.6422924 0.110119134
-2.3061445 1.6230235 2.3266168 0.18844813 -0.60047233 -0.6711377 0.9135437 0.52681464
-0.17918131 -0.07760842 -0.28327948 0.20111056 0.016583962 0.18519649 0.22527348 -1.610576
-0.19671091 -0.07282409 -1.188966 -0.0109371655 -0.62553906 0.44564906 0.4497856 1.6761862
0.08952584 -0.09323205 0.3145337 -0.3292093 0.06550774 -0.14063703 7.5610347 0.47921574
-0.07680866 -3.2576184 0.022179816 0.11127414 -0.26819387 0.7758013 3.096024 -1.1674318
1.0767494 -0.995521 -0.13316725 -2.2378054 0.05479687 0.4740503 -0.3681254 -1.4940226

bias f4 [29]
00000000: c1ef cfc0 6f5c d5c0 bc03 aec0 38a2 f6bc
00000010: f589 8dc0 7c08 ee3f 67fd 3340 f785 a9c0
00000020: 35f6 b6c0 e223 dc3e 2535 4fbf 4474 ccbf
00000030: 7225 90bf aa7f 3dc0 7f12 d0c0 0f17 3dc0
00000040: 57e3 99c0 95c9 d0bf 0a68 acc0 8977 7dc0
00000050: 3c70 d9be 3d60 afc0 3459 22c0 182b 00c0
00000060: 9ad6 dfbf f4f4 1ac0 d50b 02c0 42ad d7bf
00000070: 65df 973f
-6.498017 -6.6675334 -5.437956 -0.030106649 -4.4230905 1.8596339 2.8123415 -5.297603
-5.7175546 0.42996126 -0.8094047 -1.5972981 -1.1261427 -2.960917 -6.502258 -2.9545324
-4.8090014 -1.6311518 -5.3877 -3.9604208 -0.4246844 -5.480498 -2.5366945 -2.0026302
-1.7487366 -2.4212008 -2.0319722 -1.6849749 1.186505
