PytorchModel_autoencoder.pkl (torch_old, 44350 bytes, 16 tensors)

weight f4 [64, 29]
000000 22 93 8e 3f c8 96 1b c0 2f 27 10 bf f8 bf ed bf
       1.1138651 -2.431078 -0.5630979 -1.8574209
000010 bb 10 ae bf 36 1e 28 40 26 e2 18 40 64 82 06 c0
       -1.3598856 2.626844 2.388803 -2.1017084
000020 18 1c d5 3f aa ab cd be ca 04 08 3f 5a df 2b 3f
       1.6649199 -0.40170032 0.5313231 0.6713768
000030 c1 0b c5 bf ea e4 5e bf a7 9a 4c 3e 1c 2b ad 3f
       -1.5394212 -0.87068045 0.1998087 1.3528781
000040 40 c0 a8 3e 9b 94 68 c0 c5 57 93 3f 52 95 d5 c0
       0.32959175 -3.6340702 1.151116 -6.6744776
000050 23 2c 19 c0 93 27 7d 3e 03 28 8f 40 fe 68 95 be
       -2.393319 0.24722128 4.4736342 -0.29181665
000060 18 12 f7 be c2 c4 21 40 2c 03 ca be 2c 15 28 40
       -0.48255992 2.5276341 -0.39455545 2.6262922
000070 c7 4a 22 40 84 00 b8 3e bb e4 c0 3f 10 76 0c c0
       2.535814 0.35937893 1.5069803 -2.194706
000080 78 aa 8d 3d ee af 89 bf e6 5b c4 3f d1 8c c5 bf
       0.0691728 -1.0756814 1.5340545 -1.5433599
000090 1a 46 ff bf 9f 54 57 be 94 6f d4 3f e3 9f bc bf
       -1.9943268 -0.21028374 1.6596551 -1.4736294
0000a0 6d 4f 24 40 78 26 62 3f 11 ec db 3f 4c 72 57 3f
       2.5673478 0.8833995 1.7181417 0.8415878
0000b0 5c c6 16 40 4c bc 8a 40 c6 be 97 3e 52 64 b9 be
       2.355857 4.3354855 0.29637736 -0.3620935
0000c0 42 74 20 3f 5c 67 46 bf 9f b3 94 bf fc 58 e1 bf
       0.62677395 -0.77501464 -1.1617316 -1.7605281
0000d0 73 90 17 c0 09 6b 9a bf 6d 65 4f 3f 91 8a 26 bf
       -2.3681915 -1.2063915 0.8101414 -0.65055186
0000e0 a0 85 13 c0 1c d5 24 40 10 a9 7d c0 cb a6 58 40
       -2.3050308 2.5755072 -3.9634438 3.3851802
0000f0 64 21 a1 c0 75 34 09 3f 6c c1 8a bf 33 f0 8b 3f
       -5.035326 0.5359567 -1.0840278 1.0932678
000100 7b f6 3e c0 ba c0 33 c0 11 fa 2e 3e 33 a4 da 40
       -2.983794 -2.808638 0.1708758 6.832544
000110 46 ea 40 3e b8 7d 8a 3f 5a 2d 9a bf 40 e6 b5 bf
       0.18839368 1.0819616 -1.204509 -1.4210892
000120 40 84 62 3f 84 0d 1d 40 ec fb 98 40 c9 5f b9 bf
       0.8848305 2.45395 4.780752 -1.4482356
000130 f6 95 26 c0 4f e5 37 40 74 41 d8 bf 02 2b 26 be
       -2.602903 2.873371 -1.6894975 -0.16227344
000140 9d 9f 47 40 d9 93 65 be 0b 76 b8 bd 8b 4d 28 40
       3.119117 -0.2241968 -0.0900689 2.6297328
000150 0a 47 22 bf 1b 10 13 3f 11 93 a8 40 70 7d de 3c
       -0.63389647 0.5744645 5.2679524 0.027159423
000160 37 01 e4 3f 23 8d 6d c0 71 d7 b6 3f 5c f2 c0 c0
       1.7812871 -3.7117393 1.4284497 -6.029585
000170 0d 6a eb 3e 17 52 92 c0 2d db d1 3f 4c a6 16 40
       0.45979348 -4.5725207 1.6395012 2.3539
000180 e2 2d 10 c0 82 68 1c bf d2 ad 8a 3e 68 f6 01 40
       -2.2528005 -0.61096966 0.2708574 2.0306644
000190 9a cd 30 3f 75 7a d3 3f 5a a3 c3 bf 3f 36 23 c0
       0.69063723 1.6521746 -1.5284226 -2.550186
0001a0 29 fa 4c 3f 03 5f 0c c0 52 2c 4b c0 0f 20 36 bf
       0.80069214 -2.193299 -3.17458 -0.7114267
0001b0 a6 65 b5 3f 6a 8c 08 c0 2c 27 b5 bf a7 04 9c 3f
       1.4171646 -2.1335702 -1.4152579 1.218892
0001c0 fb 14 79 c0 02 5c dc bf 68 90 85 be 90 b2 66 40
       -3.8919055 -1.7215579 -0.26086736 3.6046486
0001d0 af a8 87 bf c9 20 1c c0 08 c8 22 c0 a6 b6 aa 3f
       -1.0598353 -2.439501 -2.543459 1.333699
0001e0 74 c3 2b c0 95 c2 e9 3f 08 af c2 c0 3a f2 a0 bf
       -2.6838045 1.8262507 -6.083866 -1.2573922
0001f0 f3 d2 eb bd e3 a5 ba 40 98 3d 08 c0 bd 1d 76 c0
       -0.11514845 5.83275 -2.1287594 -3.845565
000200 37 1b ed 3e 0f 3e f4 3f 85 0c 8c be 4e f1 b0 bf
       0.46309826 1.9081439 -0.27353302 -1.382364
000210 41 d3 8c 40 93 75 09 bf 8f bd 88 3f 83 ae 69 bd
       4.400788 -0.5369503 1.0682849 -0.057051193
000220 12 e4 9c 40 c6 e8 7c 40 7e 1e 08 40 2d cb cf bf
       4.9028406 3.9517074 2.126861 -1.6233879
000230 9a e7 70 c0 3c 3b 84 c0 7e d5 b1 3f cd 71 54 c0
       -3.7641358 -4.1322308 1.3893278 -3.3194458
000240 fc 58 06 3f c2 19 1b 40 cb 55 1b c0 ef ed 7f c0
       0.5247953 2.4234471 -2.4271114 -3.9988973
000250 4a 38 20 40 31 a9 7d bf 99 76 02 bf 67 b5 02 40
       2.5034356 -0.9908629 -0.50962216 2.042322
000260 09 17 c1 bf 84 40 18 c0 3d bd 7f 3f db c8 3f be
       -1.5085155 -2.3789377 0.9989813 -0.18728964
000270 3f 79 c9 bf d5 9f 33 bf 62 05 bf 3f 6b 2d f2 bf
       -1.5740126 -0.7016576 1.4923518 -1.892011
000280 90 d9 1a bf 8a 47 28 c0 61 1a 3d 40 34 ef 6b 3d
       -0.60488224 -2.6293664 2.954735 0.05760117
000290 f1 f2 64 40 0f 3b 47 40 f7 f4 c6 bf 2c a7 bb be
       3.577328 3.1129797 -1.5543507 -0.3665098
0002a0 df e7 2a c0 8f 19 a0 3f 41 3a aa bf 90 3a dd bf
       -2.6704023 1.25078 -1.3299028 -1.7283497
0002b0 2d c6 67 40 81 dc 85 40 e5 b7 a7 be 21 02 8d 40
       3.6214707 4.183167 -0.32757488 4.40651
0002c0 4f 62 8b c0 ce 68 a4 c0 83 4d e6 3f 24 10 fd c0
       -4.3557506 -5.1377935 1.7992405 -7.9082203
0002d0 8e bb 3f 40 d2 e7 ac bf 86 0c 95 bf b6 93 a8 bf
       2.9958224 -1.3508246 -1.1644447 -1.3170078
0002e0 ba 0e 6c c0 ac f3 cf bf 5d 1d 36 c0 86 a0 7f c0
       -3.6883988 -1.6246238 -2.8455422 -3.9941726
0002f0 37 09 af 3f d5 33 01 c0 00 47 c5 3e 9a 78 17 3f
       1.3674687 -2.0187886 0.3853073 0.591684
000300 3b 47 ab 3f 9a b5 89 3e a5 d4 1e c0 34 a6 1e be
       1.3381113 0.26896363 -2.4817288 -0.15493089
000310 85 64 42 40 bb d2 d1 3e b1 b3 8d 3f 4e 14 24 bf
       3.0373852 0.40981087 1.1070462 -0.6409348
000320 a4 ad ea bf 44 69 28 40 ac c5 41 bf 20 44 32 c0
       -1.8334241 2.631425 -0.7569225 -2.785408
000330 2f 2f 96 c0 7d 20 f2 3f 63 22 ce 40 0c 23 dc 3f
       -4.6932597 1.8916165 6.4416976 1.7198195
000340 e5 f4 60 3f 95 f4 c2 be 08 5f aa bf 10 4f b0 3e
       0.8787368 -0.38077226 -1.3310251 0.3443532
000350 7a 2e 5e 40 bd 40 1c 40 65 4c 36 40 52 96 70 bf
       3.4715867 2.4414513 2.8484128 -0.9397937
000360 44 8c 0a c0 4d 3e f0 3f 61 31 cc 3f 43 33 33 40
       -2.1648111 1.8769013 1.5952569 2.8000038
000370 1d b8 40 40 d3 ca 50 40 7d 26 ca bf 2b a9 52 40
       3.0112374 3.2623794 -1.5792996 3.2915752
000380 2e 1d b4 40 3c be 85 40 e5 d0 cf 3d 2e c2 a0 bf
       5.628562 4.179472 0.10147265 -1.2559259
000390 8c 01 47 c0 95 27 15 c0 76 1d 29 3f 0b 1b 6e 40
       -3.1094694 -2.330541 0.6606058 3.7204006
0003a0 08 fc 09 40 c0 c6 b7 3e 90 0d 10 3e 6c af 2b bd
       2.1560078 0.35893822 0.14067674 -0.041915342
0003b0 14 d8 c5 bd ea 97 98 3c c8 de 9f 3e 0c d6 12 3d
       -0.09660354 0.018627126 0.31224656 0.035848662
0003c0 d0 42 52 3f e4 7b 36 3f 6f c8 62 3e 70 21 e5 3e
       0.821332 0.7128279 0.22146772 0.44752073
0003d0 da d0 1c 3e 00 7c 4e 3f 0e a8 66 3f 2c 0f c6 3f
       0.15314046 0.8065796 0.9010018 1.547338
0003e0 41 d5 69 3f 3a 2f a8 be c6 94 fc 3e e9 f2 cf bd
       0.91341025 -0.3284853 0.49332255 -0.10153753
0003f0 24 0e 08 3f 21 bf e2 be bd 82 97 be 88 f2 7f be
       0.53146577 -0.44286445 -0.29591933 -0.24994862

bias f4 [64]
000000 6f a2 85 c1 88 cb 87 c1 33 43 97 c1 61 ff 42 c1
       -16.704313 -16.97438 -18.907812 -12.187348
000010 84 e5 94 bf 1f fd 62 c1 e3 a4 c5 c0 a3 c9 be c0
       -1.1632543 -14.186797 -6.176378 -5.962114
000020 f0 46 15 c1 b4 f5 47 c0 b6 ce 38 c1 f4 dc 68 c1
       -9.329819 -3.1243715 -11.550467 -14.553944
000030 c4 64 23 c1 04 59 76 c0 12 f9 0c c1 a8 70 ae c1
       -10.212101 -3.849183 -8.810808 -21.805008
000040 86 0b 06 c1 76 8f 7e c1 82 80 46 c1 1b f0 20 c1
       -8.377813 -15.910025 -12.406374 -10.0586195
000050 44 6b 96 c1 43 40 39 c1 c6 73 75 c1 50 4c 26 c1
       -18.802376 -11.578189 -15.340765 -10.393631
000060 fc 30 74 c1 9d 68 7e c1 f0 da 8a c1 e0 bf 60 c1
       -15.261959 -15.90054 -17.356903 -14.0468445
000070 c9 7c 80 c1 d1 ec 25 c1 44 b7 7d c1 7f 57 75 c1
       -16.06093 -10.3703165 -15.857243 -15.333861
000080 e4 fc 9c 40 05 f9 3c c1 36 01 5a c1 3c 50 6c c1
       4.9058704 -11.810796 -13.625296 -14.769588
000090 14 63 63 c1 96 49 2b c1 91 cf 3b c1 3f 1a 4f c0
       -14.211689 -10.705465 -11.738175 -3.235977
0000a0 79 c7 9b 40 8f 4b 7d c1 de 4b fc c0 68 c9 92 c1
       4.8680997 -15.830947 -7.884261 -18.348343
0000b0 4e 60 7b c0 70 03 fd 3f 1a cc 21 c1 30 6f 08 c1
       -3.927753 1.9766674 -10.1123295 -8.527145
0000c0 db 23 47 c1 45 2c 72 c1 24 3f 2e c1 53 4c 5b c0
       -12.446254 -15.135808 -10.890415 -3.4265335
0000d0 89 47 fb bf fa f4 50 c1 3d 9f 40 c1 16 b6 39 c1
       -1.9631206 -13.059809 -12.038877 -11.606955
0000e0 10 2f 5a c1 2b bd 7f c1 6a 2e 9f 3d d2 bb 7c c1
       -13.63649 -15.983684 0.07772525 -15.795855
0000f0 54 eb 2d c1 9f 73 36 c1 02 4c 63 c1 f6 a4 74 c1
       -10.869953 -11.403228 -14.206057 -15.290274

weight f4 [24, 64]
000000 5c f7 42 c0 37 7b cd bf 68 cc c9 bd 44 cd e7 bf
       -3.0463476 -1.6053227 -0.098534405 -1.8109517
000010 b0 49 a2 bf 41 22 7d c0 8d 26 9c 3f 0b 58 aa bf
       -1.2678738 -3.9552157 1.2199265 -1.3308119
000020 63 22 e2 3d 46 d7 3f bf 43 c8 92 bd 03 91 93 bf
       0.11041715 -0.74937856 -0.07167103 -1.1528629
000030 cd 3a 81 be ef 00 e9 3f 22 2e 64 40 67 85 59 c0
       -0.25240174 1.820341 3.5653157 -3.3987672
000040 26 4d 93 3f 1e 19 c4 bf 5a e7 bd 3e e1 33 51 c0
       1.1507919 -1.5320165 0.3709057 -3.2687914
000050 3c 3e e9 be 22 89 92 be f9 93 84 3e 02 4c b4 bf
       -0.45555294 -0.2862025 0.25894144 -1.4085696
000060 42 8a 73 be 41 11 40 c0 f1 4e 7b 3e a9 50 07 c0
       -0.2378321 -3.001053 0.24541833 -2.114298
000070 d3 91 d5 bf fa 24 4b c0 c9 28 91 3f 63 19 e0 bd
       -1.6685127 -3.1741319 1.1340572 -0.10942342
000080 c0 6b 22 40 70 ff 21 bf 3f 80 f2 bf ab 37 25 c0
       2.5378265 -0.6328039 -1.8945388 -2.5815227
000090 fc 0d 81 bf dc 24 a6 be 45 55 ee bf 6a c5 34 bf
       -1.0082393 -0.32449996 -1.8619772 -0.7061373
0000a0 ee 42 85 40 28 f9 c4 3f 60 41 9c c0 74 fe 3f c0
       4.16442 1.5388536 -4.8829803 -2.9999056
0000b0 11 a6 d1 be 3c 16 07 c0 d2 d6 bc bf dd 62 01 3f
       -0.4094701 -2.110732 -1.4753058 0.5054148
0000c0 0f a8 83 be 94 33 d0 be 5e 8f 54 bd 28 14 9b bf
       -0.25714156 -0.4066435 -0.051894538 -1.2115526
0000d0 22 0c 88 3d be 72 d2 bf d6 7f 29 c0 e5 64 c6 3f
       0.06642939 -1.6441267 -2.6484275 1.549954
0000e0 b2 ed c4 bf 6a 16 8c 3f 7a fc cd bb c8 e1 a9 bf
       -1.5385039 1.094434 -0.006286201 -1.3272028
0000f0 74 2c 38 40 df 1e 94 bf 74 e2 f9 3e 60 3c 8d 3e
       2.8777132 -1.1571921 0.48805583 0.27585125
000100 0b af 2f 3f 3d ce bb 3f 3b 0b 7c 40 eb f9 aa 3f
       0.6862647 1.4672314 3.9381855 1.3357519
000110 26 7e 52 bf 2d bb 80 3f 17 9b c0 3f 50 d4 52 40
       -0.8222374 1.0057122 1.504733 3.2942085
000120 4e 50 14 3f 6a c9 6a 3f 81 5e dc be e8 a7 26 be
       0.57935035 0.91713583 -0.4304085 -0.16274989
000130 42 3d cd 3e ba 99 e6 3f 12 71 37 bf f3 d7 c7 3f
       0.40085799 1.8015664 -0.71656907 1.5612777
000140 0e c9 28 3e 93 45 01 c0 73 e8 c7 3f bf 81 0a 40
       0.16482946 -2.0198715 1.5617813 2.164169
000150 9d 6f 24 40 d5 88 97 bf 29 ef a7 be 23 61 56 c0
       2.5693123 -1.1838633 -0.32799652 -3.3496788
000160 f7 f8 df 3e 25 d5 ea 3e 32 9f b3 3f 7b 76 16 be
       0.43744633 0.4586574 1.4032958 -0.14693634
000170 8c 51 d0 bf aa f2 24 40 0f 00 10 40 8a 7d ef bf
       -1.6274886 2.577311 2.2500036 -1.8710186
000180 42 5f bd 40 9f 4f 6c 3f 6f 22 74 c0 fd 56 24 40
       5.917878 0.9230899 -3.8146017 2.5678093
000190 b1 ea 44 c0 7e dc ab c0 00 17 08 c0 0c 22 3a be
       -3.0768244 -5.3706656 -2.1264038 -0.1817705
0001a0 dc 5a 91 40 e4 73 77 c0 e7 e0 84 bf 87 27 9a 3f
       4.542341 -3.8664484 -1.0381135 1.2043313
0001b0 ab 97 31 3f db 87 7c c0 1f 01 45 3f 2d 0f 0a c0
       0.6937205 -3.945792 0.76954836 -2.1571763
0001c0 ab d3 98 3f 69 9e 59 40 02 54 8b 3f 15 a6 e9 bf
       1.1939596 3.4002936 1.0885012 -1.8253809
0001d0 20 37 05 be b5 e6 1d bf 6f 5f 95 3e ab 6a e7 3f
       -0.1300931 -0.61680156 0.29174373 1.8079427
0001e0 fc 5d 81 3e cd ef 8d 3f e6 cb 82 3f 2a 41 64 40
       0.25267017 1.1088806 1.0218475 3.5664773
0001f0 75 28 ab 3f 8a ca d4 3e 8c 43 66 3f c1 ac 4d 40
       1.3371722 0.41560775 0.8994682 3.213669
000200 71 a0 b3 bd e2 b1 21 40 c0 86 d4 40 10 1f 6a 3d
       -0.08770836 2.526482 6.641449 0.05715853
000210 04 95 51 3f a7 c4 45 c0 0d 39 05 c0 65 dd 80 bf
       0.81868005 -3.0901277 -2.081607 -1.0067564
000220 72 b5 c1 be 87 c0 12 c0 50 28 c8 bf b7 38 dc 40
       -0.37833744 -2.293001 -1.5637302 6.881923
000230 a9 67 d0 3e d5 fe 44 c0 70 c2 be bf 9e 3c f1 41
       0.40704086 -3.0780537 -1.4903088 30.154598
000240 53 05 40 c0 91 b2 3f 40 9f 1d b9 bf 32 09 c8 3e
       -3.000325 2.9952738 -1.4462165 0.39069515
000250 8f 01 af 41 82 e2 a2 3d 23 5e c4 bf aa 3c 86 3f
       21.875761 0.07953359 -1.5341228 1.0487263
000260 d8 2e df 3b 96 ff fe 40 83 d9 35 c0 43 94 8a c0
       0.006811004 7.9686995 -2.8414009 -4.3305984
000270 b9 80 a8 40 ac ee 18 40 64 a3 35 c0 6a 5e 87 3f
       5.265713 2.3895674 -2.8380976 1.0575688
000280 95 9c 01 c0 b3 b2 77 3e 8f c4 e2 c0 bc 0d 77 c0
       -2.025182 0.24189262 -7.086494 -3.8602133
000290 cd fa 90 3e 78 8c d6 c0 fe ea ee c0 56 af 4c bf
       0.28316346 -6.704647 -7.4661856 -0.7995504
0002a0 4f bd 04 c1 5b 4c 3d c0 81 c4 d2 b9 25 5e c8 bf
       -8.296218 -2.9577854 -0.00040200728 -1.5653731
0002b0 58 7e fd 3d 83 5f 23 c1 9d cb 8a c0 50 b0 2c 40
       0.12377614 -10.210818 -4.337355 2.6982613
0002c0 07 f0 2b 40 e0 62 46 40 11 02 72 3e b7 e7 9a 3e
       2.686525 3.0997849 0.23633601 0.3025491
0002d0 b5 be e4 bd 88 01 53 3f 6b cf 71 3e dc 6b 52 3e
       -0.11169187 0.8242421 0.2361428 0.20548958
0002e0 6f c2 a9 3f 9f 07 f1 40 4d 74 b7 c0 fc 19 6a c0
       1.3262461 7.5321803 -5.732947 -3.657836
0002f0 d5 0d 59 40 1a 0c ba c0 f8 39 f6 3e c3 c0 b3 40
       3.3914692 -5.8139772 0.48091102 5.6172805
000300 3e dc 4a bf de 05 93 bf 43 5e 58 3d b2 f9 d9 bd
       -0.7924231 -1.1486166 0.05282427 -0.10643329
000310 14 dc a2 be 98 c8 79 bf f7 cd c6 bf 20 f4 89 bf
       -0.3180853 -0.97571707 -1.5531605 -1.0777626
000320 ca da 3d bf 7f 4f 53 bf ed c1 29 3f a9 a7 c3 bd
       -0.7416197 -0.82543176 0.6631153 -0.09553463
000330 c3 95 af be a6 f1 ad bf 1e a9 4f bf dd 3c b2 bf
       -0.34293947 -1.358937 -0.8111743 -1.3924824
000340 7a 3b 58 bf ef 22 28 bf 30 ff a7 3e 1d 9c 06 c0
       -0.84465754 -0.65678304 0.3281188 -2.1032784
000350 34 e9 77 bf cf 17 9b be 20 3b 85 bf dc 90 d8 bf
       -0.96840215 -0.30291602 -1.0408669 -1.6919208
000360 03 49 36 3f ea a8 b1 be f8 75 8e 3e 25 c1 07 bf
       0.7120516 -0.34699184 0.27824378 -0.5302909
000370 53 b6 c3 bf b5 f9 89 3e 95 71 01 3e 33 96 ed bf
       -1.5290016 0.26948324 0.12640984 -1.8561462
000380 d5 36 b2 bf 24 d3 48 bd b0 c7 f5 bf fe e8 a0 bf
       -1.3922983 -0.049029484 -1.9201565 -1.2571104
000390 88 b1 a1 bf f2 da cf bf 95 f5 a8 3d ec 65 8d 3e
       -1.2632303 -1.6238692 0.08249966 0.27616823
0003a0 54 1d f9 be 62 f7 df be f5 74 f1 bf 8e 4d ac bf
       -0.48655188 -0.43743426 -1.8863817 -1.3461168
0003b0 a8 eb 1d 3e 16 e0 b4 bf 98 d5 d6 bf 75 9f 9e bf
       0.15421927 -1.4130886 -1.6783934 -1.2392412
0003c0 ca 1f f7 be 83 9d dc bf 11 70 b5 be dd 9a 57 be
       -0.4826644 -1.7235569 -0.35437062 -0.2105517
0003d0 d5 9f 32 3e 66 15 bc bd 1a 87 a9 3c 2e 8d 02 be
       0.17443784 -0.09183769 0.020694304 -0.12749168
0003e0 15 c4 81 3f c2 c1 51 bf d7 67 75 bf 66 23 e9 3d
       1.0137964 -0.81936276 -0.9586157 0.11383705
0003f0 3c 3c fb bc dc 7c a7 be 88 07 67 bf 16 60 8b be
       -0.03066837 -0.32712448 -0.90245867 -0.27221745

bias f4 [24]
000000 32 f1 fe 3e cf 91 04 c0 a3 93 d5 40 db bd 13 c0
       0.49793392 -2.0713995 6.674272 -2.3084629
000010 ca 37 cd bf ee ea bb 40 2b 27 87 c0 cf 98 38 c1
       -1.603265 5.872428 -4.2235312 -11.537307
000020 6f b7 10 c1 61 14 e9 bf 7d e3 0a c1 4f 0c 7b c0
       -9.044784 -1.8209344 -8.680539 -3.9226263
000030 f9 07 be c0 31 c2 75 bf 45 42 57 c0 b2 a8 73 bf
       -5.938473 -0.9599944 -3.3634198 -0.95179284
000040 db be 8c bf ad 9a ad 3e 18 a1 ec c0 b8 5c af c0
       -1.0995744 0.3390707 -7.394665 -5.480068
000050 36 9c 63 bf 49 66 c2 c0 96 28 8f c0 e7 6a 2e c0
       -0.88910234 -6.074986 -4.4737043 -2.7252748

weight f4 [16, 24]
000000 18 e4 28 be 58 27 12 be 3c f3 ea be bf 0b 53 3d
       -0.16493261 -0.14272821 -0.45888698 0.051524874
000010 f0 28 81 bd f2 33 67 c0 76 e7 bb bf f1 6e e1 bf
       -0.06306636 -3.6125455 -1.4680011 -1.7611982
000020 97 b4 a4 bf b8 01 56 bf bd 8f ae be ef 90 5e bd
       -1.2867612 -0.8359637 -0.3409404 -0.05433744
000030 a1 75 13 be df 70 00 bf ae 53 ad bd 8a 69 d5 bd
       -0.1440034 -0.5017223 -0.08463226 -0.104205206
000040 76 70 64 be 97 1b 52 bf 1c 47 39 be 1b ec 99 be
       -0.22308525 -0.8207335 -0.18093532 -0.30062947
000050 31 72 74 3e 1d 31 f1 be d0 19 4f bf d7 21 69 bf
       0.23871686 -0.47107783 -0.8089876 -0.9106726
000060 43 32 00 be db d3 98 be 92 e1 14 be 03 ae 8a bf
       -0.12519173 -0.29849133 -0.14539173 -1.0834354
000070 11 1b ce be 53 e4 8d c0 6b 98 ad 3e f8 21 e1 bf
       -0.40255025 -4.4341216 0.33905348 -1.7588491
000080 d8 70 1b bf 7d df d2 bf 7c 43 c0 bf c7 e4 2d 3f
       -0.6071906 -1.6474453 -1.5020595 0.6792721
000090 bc 2a e7 bd a6 41 76 c0 b5 da 8c bf 27 ec 70 bc
       -0.11287448 -3.8477569 -1.1004244 -0.014704741
0000a0 d8 47 66 be f4 99 4c bf 33 02 c1 37 18 bd a7 bd
       -0.22488344 -0.79922414 2.3008417e-05 -0.08190364
0000b0 c4 2a 2a be e0 f3 c1 be ec 3c 56 be 73 e6 2e be
       -0.16617876 -0.37881374 -0.20921677 -0.17080097
0000c0 cc 15 b7 bd 22 5b 9b bc 5a 76 8f be 1b 9e 25 be
       -0.08939704 -0.018964354 -0.28019983 -0.16173594
0000d0 e0 35 62 3d 4b 51 39 be 6a a5 12 be b7 b1 9f be
       0.05522716 -0.18097417 -0.14320913 -0.31190273
0000e0 9a 4d c6 bd bd 37 5a be 40 fb 74 be 96 e5 4d be
       -0.0968277 -0.21310325 -0.2392397 -0.20107111
0000f0 75 4b ec bd c5 a8 8c be fa 3c 9f be 56 15 a3 bd
       -0.1153783 -0.2747251 -0.3110121 -0.07963054
000100 7b c2 11 be 97 4f 06 bf 2c e5 06 be c6 ee a0 bd
       -0.14234345 -0.52465194 -0.1317336 -0.078580424
000110 2b 84 4c be fb 30 5f bd 0b 29 10 bd 27 10 ba bd
       -0.19972293 -0.05449007 -0.03519539 -0.09085112
000120 67 5b 14 be 63 e7 9c be 98 5e c2 be 10 64 02 3e
       -0.14487992 -0.30645284 -0.37962794 0.12733483
000130 a8 2f 5a 3e f2 db 16 c0 c9 07 7a bc 47 a3 ae be
       0.21307242 -2.3571744 -0.015260645 -0.34108946
000140 4a 83 86 be fa a6 1b be b9 1e 38 3a 72 d8 30 be
       -0.2627204 -0.15200415 0.0007023621 -0.17270067
000150 f4 4d 86 be e5 c4 86 be e4 04 b5 bd 40 1a b7 3c
       -0.2623135 -0.26322094 -0.088388234 0.022351384
000160 e1 4e ab be 44 ab 51 be 4f 22 32 bd ea ce 17 bc
       -0.33458617 -0.20475489 -0.04348975 -0.009265641
000170 66 fb 4b 3e 36 f2 6e be ae 0e 77 bc 1e ae 10 be
       0.1992012 -0.23334584 -0.0150791835 -0.1412892
000180 d6 ae 80 bd 9a c3 fe be 04 50 5c bf af bd ae 3e
       -0.06283347 -0.49758607 -0.86059594 0.34129092
000190 4d 2c 17 bf 75 dc fa be af e2 08 bd 2e 52 9b bf
       -0.5905197 -0.4899632 -0.033419307 -1.2134454
0001a0 16 9d d1 be e2 93 a8 be 4c 6e 79 bf 63 7c 6e be
       -0.4094016 -0.32925326 -0.97433925 -0.23289637
0001b0 1c c2 6f be 88 c0 70 be 2b 35 65 bd fd 36 e4 3e
       -0.2341389 -0.23510945 -0.055958908 0.44573203
0001c0 ec 69 23 3c b1 78 96 be de 82 36 bf ba bc b1 be
       0.009973984 -0.29388955 -0.7129344 -0.347143
0001d0 15 db 0e 3e c6 4f 85 be 76 79 bd be 3e 63 c1 bb
       0.1395076 -0.26037425 -0.3700673 -0.005901723
0001e0 3e 68 04 ba f6 9b 99 be 90 04 2a bf 27 9d bd 3d
       -0.00050509337 -0.300018 -0.6641321 0.0925849
0001f0 4c d3 5a be 67 8d 0c bf 34 74 a6 be f2 5d b7 be
       -0.21369666 -0.5490326 -0.3251053 -0.35813862
000200 ac 57 ae bd c8 f2 2a be e7 b5 3b bf c2 ef f5 be
       -0.08512816 -0.16694176 -0.73324436 -0.48034483
000210 98 8c 73 bf 6e ec c1 bd 86 4a 9d be 89 5c 8c 3d
       -0.95136404 -0.094689235 -0.3072092 0.06853587
000220 76 81 3a 3e 5a f2 76 be 54 65 c7 bd f1 a4 5a be
       0.18213448 -0.24115887 -0.09736124 -0.21351983
000230 08 ab 93 3d 9d 83 f8 3e fb 3c 45 bf ab 59 29 bf
       0.07210356 0.48537913 -0.77046174 -0.6615245
000240 cb 96 f8 bd e4 58 49 be ae 52 57 be 4d 85 33 be
       -0.121381365 -0.19662815 -0.21027634 -0.17531319
000250 dc 7b b6 3d 53 3e e8 bd 4f e0 94 be 99 97 c9 be
       0.08910343 -0.113400124 -0.29077384 -0.39373472
000260 25 49 2d be 78 88 ae bd 14 8c c7 bd 32 99 2e be
       -0.16922434 -0.08522123 -0.09743515 -0.17050627
000270 cf cf 88 bd cc fe cd bc 59 69 9f be d4 ce 70 bd
       -0.06680261 -0.02514591 -0.3113506 -0.058790997
000280 0d cd 7e be 4d 73 10 bf e2 46 9f be 85 1c 76 3c
       -0.24882908 -0.56425935 -0.31108767 0.015021448
000290 e8 a9 6f 3d 5e e9 98 be e7 15 c9 bd c9 45 83 be
       0.058511645 -0.29865545 -0.09818631 -0.2563918
0002a0 f7 b5 12 be 63 de 13 c0 96 51 1a c0 d9 19 80 3f
       -0.14327227 -2.3104484 -2.4112296 1.0007888
0002b0 92 eb 19 bf 8d b6 05 3e 21 65 74 3f b6 db de bf
       -0.60125077 0.13057919 0.9546681 -1.74108
0002c0 af b6 57 3e a2 8e 3f bf 7f 42 33 bf e0 05 90 be
       0.21065782 -0.74827015 -0.7002334 -0.28129482
0002d0 b5 2f 40 c0 94 ea 11 bf ff ac 1f 40 df 55 99 bc
       -3.0029118 -0.5699856 2.4949338 -0.018717704
0002e0 7a 0a 45 3e f8 e6 30 c0 d2 be cb be eb ad 9f be
       0.19242278 -2.7640972 -0.39794022 -0.31187376
0002f0 1d c7 9a 3e a3 c2 2b be 33 82 b1 3e 20 ba e6 bf
       0.30230036 -0.16773467 0.34669647 -1.8025551
000300 38 76 9c 3c d7 cb 40 bf 47 47 9a bf 1f bd 71 be
       0.01909934 -0.75311035 -1.2053002 -0.236073
000310 d9 85 0c be 52 f2 95 bf 97 a7 1d be cd 97 c6 bf
       -0.13722934 -1.1714575 -0.15395962 -1.5515076
000320 5c 46 6d 3b cd 1e 9f be 6a 84 bd bd f6 51 e2 3b
       0.0036205268 -0.31078187 -0.092537716 0.006906743
000330 ed b9 cc be a5 d0 7f bd ee 20 8e bb 10 37 08 3e
       -0.399856 -0.06245484 -0.0043374216 0.13302255
000340 9e 0c 6a bd 08 e9 a3 be e6 8a 31 bf fb c1 2b be
       -0.05714094 -0.32013726 -0.6935257 -0.16773216
000350 77 65 40 be 11 7d 4f bd 8b 3f 44 be 96 8a 97 bd
       -0.18788706 -0.050656382 -0.19164865 -0.0739948
000360 dc 67 7d 3d c1 96 1a be 8f d4 31 c0 66 be 1c bf
       0.061866626 -0.1509657 -2.7785985 -0.61228025
000370 f4 64 9f bb af cf b2 bf 3e 88 10 3f a4 5f 2c be
       -0.0048643295 -1.396963 0.5645789 -0.16833359
000380 e4 dc 2f bf 85 9a 81 bf 30 bd 90 bf ad be 4a 3e
       -0.6869643 -1.0125281 -1.1307735 0.197993
000390 b0 d5 a6 bf 38 9a e0 bf 08 29 bd be 6c be b1 3e
       -1.3033962 -1.7547064 -0.36945367 0.34715593
0003a0 86 ff 2d be a4 5e 95 be 38 18 bc bf b6 5d 00 bd
       -0.16992006 -0.29173768 -1.4694891 -0.03133937
0003b0 b5 ac 28 be 3f 30 cd be 65 a6 05 be d3 3f be be
       -0.16472133 -0.4007587 -0.13051756 -0.3715807
0003c0 cc aa 86 bf aa 81 5b c0 20 01 a3 3f e6 e6 4f be
       -1.0520873 -3.429789 1.2734718 -0.20302925
0003d0 a4 8e 9d 3e f8 e8 ac bf 02 a0 c2 bf 9c 87 28 40
       0.3077289 -1.3508596 -1.520508 2.633277
0003e0 f8 70 30 bd 44 0f af 3f 5b e3 5d c0 44 fd 8a be
       -0.043076485 1.3676534 -3.4670017 -0.2714635
0003f0 36 89 9d c0 03 b2 6b c0 ab 54 75 bf ec 4e e2 3e
       -4.9229994 -3.68274 -0.9583232 0.44200838

bias f4 [16]
000000 3b 71 0e c0 d4 c0 07 be 79 86 a6 bf ba 31 db bf
       -2.225661 -0.13257152 -1.3009788 -1.712455
000010 96 a2 1a c0 00 73 1a c0 91 cc 06 bf 02 37 53 c0
       -2.4161735 -2.413269 -0.52655894 -3.3002324
000020 ac 26 cc bf 41 a9 6c c0 1f 23 00 40 82 20 d7 c0
       -1.5949302 -3.6978304 2.0021436 -6.7227182
000030 0a 0e a7 c0 bd 81 05 41 92 34 7e c0 4b cd 0e 3e
       -5.2204638 8.344174 -3.9719586 0.139455

weight f4 [8, 16]
000000 76 e8 0b 3f 1c 9d 7c 3c cc ca 5b be ee f4 4d 3f
       0.5465158 0.015418317 -0.2146408 0.8045186
000010 f9 fb 95 3e 19 7c 0e bf b9 a2 a3 bd 61 d8 be 3f
       0.29293802 -0.5565811 -0.07990021 1.4909784
000020 bf 73 4f 3f f5 54 13 40 40 69 f3 3f 26 c3 a1 3f
       0.8103599 2.3020604 1.9016495 1.263768
000030 a4 b4 b6 3d 9c 77 19 40 9c 57 7a 3e a7 1f 25 3f
       0.08921173 2.3979254 0.24447483 0.6450142
000040 9b 40 8d be 45 ed 38 be bd ba 67 3e 20 87 1f bf
       -0.27588353 -0.18059261 0.22629829 -0.6231556
000050 f6 c2 61 3f e6 77 62 bf 3f de 3d be 0f 45 19 40
       0.8818811 -0.884642 -0.18541811 2.39484
000060 27 f0 fb 3e b1 3f 8b 3e 53 e4 4e 3e 18 c4 2a 3f
       0.4920666 0.2719703 0.20204286 0.66705465
000070 df ad af 3e 1c bb 1b 40 10 c8 a4 3f ee ce b3 3f
       0.3431234 2.4332952 1.2873554 1.4047525
000080 87 57 48 be 7e b8 0d 3c ad 0d 23 3e 1e cd 01 bf
       -0.19564639 0.008649943 0.15923186 -0.5070361
000090 f1 49 5c 3e dc 20 2a 3f 7a 2d 53 3d 36 c0 aa 3d
       0.21512581 0.6645639 0.05155704 0.083374426
0000a0 02 b1 56 3f 0d 0e 07 bf 4f 22 81 bf 0d 0c 47 3e
       0.8386384 -0.52755815 -1.0088595 0.19438191
0000b0 3d e8 2e 3d e0 20 e1 bf 35 4a fb be 64 64 d0 bf
       0.04270195 -1.7588158 -0.49080053 -1.6280637
0000c0 75 c8 65 bf 12 e3 2b bf 02 ca a7 be 46 f6 0a bf
       -0.89759 -0.67143357 -0.32771307 -0.54282033
0000d0 a6 f5 59 bf 99 35 3f bf be 0c e0 3d d8 d3 39 bf
       -0.85140455 -0.7469116 0.109399304 -0.7258887
0000e0 50 c6 c2 be b7 19 54 bf 0a 5a b6 bf 70 65 70 be
       -0.38041925 -0.8285174 -1.4246228 -0.23476195
0000f0 28 26 f6 3e fb 04 2b 40 82 a9 01 bf 1b db a7 3f
       0.48075986 2.672179 -0.50649273 1.3113741
000100 77 24 0b bf 37 ef c0 be a9 a1 03 3e 6b 79 1b be
       -0.54352516 -0.37682506 0.12854637 -0.15183036
000110 e2 4c 7e 3e a3 42 5e 3b 3d 8f b8 3e 2c 7a 10 40
       0.24834016 0.003391423 0.36046782 2.2574568
000120 b1 8d 14 3d dd 6b b4 bf 1c 67 8a bf 77 13 b0 be
       0.03626794 -1.4095417 -1.0812716 -0.3438985
000130 2e 3d 00 bf 82 38 45 40 bb 5a 0a bf 52 51 8b c0
       -0.5009335 3.081574 -0.54044694 -4.353677
000140 85 a3 4f bf 79 de 94 3f f4 72 80 3d d6 ef 26 bd
       -0.81108886 1.1630393 0.062719256 -0.04075607
000150 f2 68 f7 be 3d f3 05 bf 22 a0 73 3e 7e 8b 16 40
       -0.48322254 -0.5232428 0.23791555 2.352264
000160 7b ec 33 3e 6e 63 88 bf 52 0a 86 be 54 18 41 bf
       0.17570679 -1.0655344 -0.2617975 -0.75427747
000170 c3 fd 4f bf 13 74 42 40 a5 cc d4 3e 86 65 ae 3f
       -0.81246585 3.0383346 0.4156238 1.3624732
000180 ed b0 2b bf e6 52 e7 be c1 6f 3e 3e 06 e4 be be
       -0.6706684 -0.45180434 0.18597318 -0.37283343
000190 75 ad bc 3e b9 dd 55 bd df 5d e0 3e 39 49 d7 3e
       0.36851087 -0.052213404 0.43821618 0.42048052
0001a0 9f df 99 be 85 6b 9f 3f 8b fd af bd 38 e6 ff 3e
       -0.30053422 1.2454687 -0.08593281 0.4998033
0001b0 bd 19 5a bd d0 44 c5 bf f8 67 51 3e 58 58 e0 3e
       -0.053247202 -1.5411625 0.20449817 0.438174
0001c0 26 3b 44 3f d1 25 4c bf 24 ef 90 3e 1b b3 ce 3e
       0.76652753 -0.79745203 0.2830745 0.40371022
0001d0 1b 36 2c be bd 65 47 be f6 6a 8c 3d 22 f2 94 3f
       -0.16817515 -0.19472404 0.06856339 1.1636393
0001e0 42 a7 10 3e b9 81 fb 3f a2 c8 7d be 52 4d f0 3e
       0.14126304 1.9648963 -0.24783567 0.4693399
0001f0 53 bb 01 40 b4 75 4d 40 65 80 91 3e ec af 86 be
       2.0270584 3.210309 0.2841827 -0.26306093

bias f4 [8]
000000 1c c9 42 c0 97 4e f1 bf c2 84 46 40 4f b1 7d bf
       -3.0435247 -1.8852109 3.101853 -0.99098676
000010 26 e5 70 c0 92 d6 72 c0 63 7d 4e 3f ea 2a 55 40
       -3.763986 -3.7943463 0.80660075 3.3307443

weight f4 [16, 8]
000000 2d f6 af bf 72 ce a3 bf 65 40 a4 3d b7 e9 05 bf
       -1.3747002 -1.2797377 0.08020095 -0.52309746
000010 ca 2d 19 3f 09 b1 8b be 72 d5 bd bf 47 e8 e1 bf
       0.59835494 -0.27283505 -1.4830763 -1.764901
000020 6a 64 8d bf 7e b3 6a be 80 28 28 3e 3e b4 0d 3f
       -1.1046269 -0.22920033 0.164217 0.5535315
000030 be ee 2c 40 b6 e6 9e be ea 0b e3 be e9 96 90 bf
       2.7020717 -0.31035393 -0.44345027 -1.1296054
000040 50 21 02 3f 19 67 90 3d f5 fd fe bf 12 75 22 3e
       0.5083208 0.07050914 -1.9921252 0.15864971
000050 ca 34 6c 40 81 d8 b3 3f 11 53 ae be 99 06 84 bf
       3.690722 1.4050447 -0.3404775 -1.0314513
000060 d4 ee e0 3e 2a 0e 4c be e5 40 96 3e e2 86 52 3f
       0.4393221 -0.19927278 0.29346386 0.82237065
000070 9d 36 ec 3f cf 34 ae 3f fc 98 5b bf ce 45 ae be
       1.8454167 1.3609866 -0.8578031 -0.34037632
000080 1f de 3e 3e e4 41 91 bf 91 af d2 3d ec 93 2f bf
       0.1863942 -1.1348233 0.10287393 -0.68585086
000090 19 9d 13 40 ee 69 5f 3f fe 99 4f be db d1 71 bf
       2.3064635 0.8727101 -0.20273587 -0.9446084
0000a0 3a 16 5d bf 57 3d 37 bf 54 29 8b 3e aa 9a f7 3e
       -0.8636204 -0.7157797 0.27179968 0.48360187
0000b0 9a fd 10 40 12 53 48 3e ec e6 33 39 fd 6f b5 bf
       2.2654786 0.19562939 0.00017156795 -1.4174801
0000c0 9a 3c 69 3f d2 22 bd 3f 5b b4 2e bf 97 74 49 3e
       0.91108096 1.4776251 -0.6824395 0.19673382
0000d0 07 3d 69 40 99 87 a0 3f 36 58 e5 3e f7 0a 86 bf
       3.6443498 1.2541381 0.44793862 -1.0472096
0000e0 f7 c0 04 bf 4a 78 06 c0 6f ac ca 3e 41 a8 1e 3f
       -0.5185694 -2.1010919 0.3958468 0.61975485
0000f0 95 4f 4b be ea d6 64 3e af 9b 95 bd ee 29 b7 bf
       -0.19854577 0.22347608 -0.07305085 -1.4309671
000100 d5 0b ec 3f ad 65 84 3f ec ab 76 bf cd 15 c8 be
       1.8441111 1.0343529 -0.9635608 -0.39079133
000110 54 f3 0a 40 85 f6 ae 3f c4 90 d1 be 49 e9 aa 3e
       2.1711016 1.3668982 -0.4093076 0.33381107
000120 2e 72 85 bf 64 0e 0f 3f 43 5d 32 be 29 41 9d 3e
       -1.042547 0.55881333 -0.17418389 0.30713776
000130 10 ed 19 40 fb 1d 7d 3f 32 d9 2f bf ef 6b a2 be
       2.4050941 0.9887387 -0.6869079 -0.31722972
000140 fb c2 77 bf e5 24 a6 bf e6 8e 96 be b2 24 a8 3f
       -0.9678189 -1.2980009 -0.29405898 1.3136199
000150 26 c8 bb 3f 18 06 98 3e f6 7d ff be 8f 6e c3 bf
       1.4670455 0.2969215 -0.49900788 -1.5268115
000160 b0 58 5c 3e 36 ef bb bf d4 b7 0b 3f a2 57 0f bf
       0.21518207 -1.4682376 0.54577374 -0.5599309
000170 37 4a 84 40 37 7b 19 3f 94 68 93 3e 74 b8 cf bf
       4.1340594 0.59953636 0.28790724 -1.6228166
000180 b0 c0 37 3e 1e 8b bc bd 44 54 0f bf 1a 6f 40 3f
       0.17944598 -0.09206222 -0.55987954 0.7516953
000190 93 bf 06 40 c7 fa 35 3f ba 19 0b bf df 13 25 bf
       2.1054428 0.7108578 -0.5433613 -0.64483446
0001a0 da 56 1c bf da 16 b1 bd ad e6 a8 3d a9 9c cb bd
       -0.61070025 -0.08646937 0.08247123 -0.0994199
0001b0 38 1f 1f 40 57 4b c7 be 0a f1 37 be 48 2f 80 bf
       2.4862804 -0.38924667 -0.17963043 -1.0014429
0001c0 95 4d e8 3e a7 98 5e 3e 0a e6 3c bf 5e 60 d2 3f
       0.4537169 0.2173792 -0.7378851 1.6435659
0001d0 ef 27 0e 40 bb b4 22 3f da 7f c4 bd 83 9b dd be
       2.2211874 0.6355702 -0.09594698 -0.4328271
0001e0 f1 a4 73 bf ab 83 2f bf 1a 66 0a 3f d6 d2 09 3f
       -0.95173556 -0.68560284 0.54062045 0.53837335
0001f0 0c 72 a4 3f b6 bf 5a 3d 31 66 3f bf 51 dc 46 bf
       1.2847304 0.053405486 -0.74765307 -0.77679926

bias f4 [16]
000000 1c e8 59 c1 c3 35 24 c1 13 9c fd c0 b0 88 df c0
       -13.619167 -10.263125 -7.925302 -6.9854355
000010 33 b2 90 c0 d4 eb fb c0 c4 43 d7 c0 c9 0a 35 c0
       -4.521753 -7.8725376 -6.727022 -2.8287833
000020 e9 a3 02 c1 d4 c2 37 c1 9b 4c 00 c1 d7 8d f7 c0
       -8.165017 -11.485065 -8.0187025 -7.7360644
000030 3c 4b 92 c0 d2 78 e9 c0 68 6e e4 bf 16 ec da c0
       -4.571684 -7.2959986 -1.7846193 -6.841319

weight f4 [24, 16]
000000 a8 be 46 3e 9c 43 f9 3e 77 1a 5a bf 01 be 8d 3e
       0.19408667 0.48684394 -0.8519663 0.27684024
000010 a9 91 f6 bf a0 e2 01 3e 26 83 c5 bf 12 00 83 c0
       -1.9263202 0.12684107 -1.5430648 -4.0937586
000020 8b 10 c2 be 26 46 ec bd 18 03 4d 3e 78 42 b2 be
       -0.37903246 -0.11536817 0.20020711 -0.34816337
000030 e3 d8 8b 3e 7e 18 9f be dd 02 17 c0 71 ac 3e 3f
       0.2731391 -0.31073374 -2.3595498 0.74481875
000040 60 be 9c bd 17 4c 5f be 9e ec bc be d8 53 c0 be
       -0.07653499 -0.2180637 -0.36899275 -0.37563968
000050 30 5e 9b be 4b 56 3a 3e 0e 5c c8 be d4 03 1d bf
       -0.30345297 0.1819698 -0.39132732 -0.61333966
000060 95 35 08 be c0 c1 f3 bd e3 bc 4c be 3e 45 01 be
       -0.1330169 -0.11902189 -0.1999393 -0.1262407
000070 44 d5 97 be a5 6d 1f be db 01 19 bf b1 ca 5e 3e
       -0.29654896 -0.1556917 -0.59768456 0.21757008
000080 98 9d f7 be 17 2b 1f be 3a be ba bf 14 8f 82 be
       -0.48362422 -0.15543781 -1.4589303 -0.25499785
000090 23 df 2a bf 43 b5 60 be db 17 12 be c3 09 d9 bf
       -0.6674673 -0.21944146 -0.14266913 -1.6956104
0000a0 1b 42 2e be c1 72 1b be bb e9 e8 3e 8d c0 83 be
       -0.17017405 -0.15180494 0.45490822 -0.25732842
0000b0 1b 6b bc be 01 cc 65 bd e3 d7 de be bd 8d 8c bb
       -0.36800465 -0.056102756 -0.43524083 -0.0042893575
0000c0 89 48 1f 3d 09 de a2 be 5d 3a d0 be 04 99 57 3e
       0.038887534 -0.31810024 -0.40669528 0.21054465
0000d0 06 be 44 bf 67 61 4f be a7 1e e8 be 56 9e 47 bf
       -0.7685245 -0.20252 -0.45335886 -0.77975976
0000e0 ec 96 89 bf 4a f8 63 3d 95 f6 87 be 28 ba 38 be
       -1.0749183 0.05565671 -0.26555315 -0.18039763
0000f0 e0 34 82 bf 77 50 86 be dd 21 ba bf f3 d7 91 bd
       -1.0172386 -0.26233265 -1.4541584 -0.07121267
000100 c8 d0 ef be 62 27 6d bf cf f3 fc bf a0 04 0a be
       -0.46838975 -0.9263822 -1.9761904 -0.13478327
000110 64 64 b7 be 0c 36 2d 3c a1 60 fb bd bf e1 58 bf
       -0.3581878 0.010571968 -0.1227429 -0.8471946
000120 1a cc 9e bf 8f 0e 34 3e 83 2f f6 bd cc 82 b5 3d
       -1.2406037 0.17583679 -0.12020781 0.08862838
000130 79 29 ec be c1 13 2f bf 18 f9 70 bf f1 0a 5d 3f
       -0.4612539 -0.6838952 -0.94130087 0.8634482
000140 bd fc 9c bf 36 04 24 40 1c 1e 93 bf bf 0d c4 bf
       -1.226463 2.562757 -1.1493564 -1.5316695
000150 d1 d5 07 c0 0f df 36 3f 83 6c 0a bf 76 23 6e bf
       -2.1224253 0.7143411 -0.54071826 -0.9302286
000160 ad 14 f0 be 98 75 5e bf da b1 6c 3e 8a 36 39 bf
       -0.46890774 -0.86898184 0.2311472 -0.72348845
000170 08 a1 8b 3f f0 3b 74 3e e5 e2 17 c0 df eb 22 3f
       1.0908518 0.2385099 -2.3732235 0.6364116
000180 b9 15 35 be e2 d6 24 bf 6b c7 0c be ca 2a 14 bf
       -0.17684068 -0.64390385 -0.13747947 -0.5787779
000190 dc bd 12 bf ac c8 ca be 06 c9 ac be 9c dc c9 be
       -0.5732095 -0.39606225 -0.3374712 -0.39426124
0001a0 27 6d 0d bf 82 74 30 be bc 3e 4a 3e c0 56 1d be
       -0.5524468 -0.17231944 0.19750494 -0.15365124
0001b0 2d cd 2a be 30 63 cd be cd 1d da be 4d 7c 88 3e
       -0.16679831 -0.40114737 -0.4260086 0.26657334
0001c0 22 83 42 3f 46 77 bf be 30 b9 4b bf bb b5 0c bf
       0.7598134 -0.37395686 -0.7957945 -0.549648
0001d0 65 8b 66 bf 63 c9 68 3e 39 2e c1 3d 4a 2d d4 bd
       -0.9005645 0.22733073 0.094326444 -0.10360201
0001e0 f0 72 7d bf 30 c1 f8 3e f3 29 36 3e 55 79 9a 3e
       -0.99003506 0.4858489 0.1778944 0.30170694
0001f0 60 50 29 bf c3 ec b0 be b0 c6 e1 bf 64 1b a2 3e
       -0.6613827 -0.34555635 -1.763876 0.31661522
000200 7a 28 9f 3f b4 a5 49 be 96 2d cc be 4a 17 b0 bf
       1.2434227 -0.19692117 -0.3987853 -1.3757107
000210 3a cd a1 bd 83 2f c3 bd 43 9a ac 3c 0e c4 0d be
       -0.07900472 -0.095305465 0.021069651 -0.1384432
000220 f0 34 36 bf 59 96 d1 be 8b 64 51 3d fd 92 84 bd
       -0.71174526 -0.4093502 0.051121276 -0.06473348
000230 90 df a6 bf 29 c6 45 be b1 2a 81 bf fa 24 e0 3d
       -1.3036976 -0.19313873 -1.0091153 0.10944553
000240 3f b9 de bc f9 72 87 bd f3 23 2b bf ac 74 02 bf
       -0.027187942 -0.06613726 -0.6685173 -0.5095928
000250 07 33 76 be 60 61 ea be 31 f0 c1 bd 78 8b c9 be
       -0.24042903 -0.45777416 -0.09469641 -0.3936422
000260 20 d8 27 be 29 2b ad be 37 f7 51 be aa 9e 8c be
       -0.16391039 -0.3382199 -0.20504461 -0.274648
000270 0d bd 87 be 5c 04 05 bf 0a 79 91 be 68 79 6c bf
       -0.26511422 -0.51959777 -0.28412658 -0.9237275
000280 67 99 0e bf 77 fb 8f be bd b3 8d be ff 00 dd be
       -0.55702823 -0.2812154 -0.27676192 -0.43164822
000290 4c 26 23 bf 93 56 41 bf f4 f3 01 be 2c 32 e8 bf
       -0.6373031 -0.75522727 -0.12690717 -1.8140311
0002a0 8e c1 9e bf 45 7f 04 be 86 25 df 3d e6 76 c2 bd
       -1.2402818 -0.12939174 0.10895829 -0.09495334
0002b0 d7 cd 1c bf 22 da 19 be b5 65 d6 be 02 8e 83 3e
       -0.61251587 -0.15024617 -0.4187447 0.2569428
0002c0 7d e0 02 be 51 4a 2d 3f 5f ca c0 be d8 30 8a be
       -0.12780948 0.6769152 -0.37654397 -0.2699039
0002d0 89 e8 0a bf 7f 3b 1a bf 31 60 8f bf de 94 c1 bf
       -0.5426107 -0.60247034 -1.120123 -1.5123556
0002e0 3b 9b f9 bf fe f8 a5 3e 33 a1 52 bf 36 94 61 be
       -1.9500498 0.32416528 -0.8227722 -0.22029194
0002f0 b0 a3 04 c0 2e 6e 9c be 9b fe 74 bf c2 b7 8a bf
       -2.0724907 -0.3055281 -0.95701 -1.0837328
000300 d9 d9 3e 3f 5e c5 6e be 8f 28 15 be 6b f0 c1 3c
       0.7455116 -0.23317477 -0.14566253 0.02367421
000310 97 e5 9e bf b6 79 4e be b3 64 25 bf 49 42 42 be
       -1.2413815 -0.20163617 -0.6460678 -0.18970598
000320 72 61 29 bf 93 25 db 3c ee 63 3a 3e b3 95 fe bd
       -0.66164315 0.026751315 0.18202183 -0.124308966
000330 1e 58 f4 3d 36 fe 0a bf 3b f8 af bf 10 3a 99 3f
       0.119308695 -0.54294145 -1.3747629 1.1970844
000340 b2 9f 13 bd 99 37 59 3f 72 52 e3 bf fb ae b8 3e
       -0.03604097 0.8485046 -1.7759535 0.36071
000350 92 13 96 be 23 02 61 3e ad 6d 8d bf 3f 79 19 c0
       -0.29311806 0.21973471 -1.1049095 -2.3980253
000360 c6 8f cb bf 60 cd bb 3d 6b fa af 3d d6 7e 40 bf
       -1.5903251 0.091700315 0.08592685 -0.75193536
000370 fd ad c2 3e df 2b fb be c7 0b ae bf 46 46 1d 3f
       0.38023368 -0.49056908 -1.3597344 0.61435354
000380 31 f7 b4 3e 54 59 8e bf fc cb ab bf 63 a6 1e bd
       0.35344842 -1.1121011 -1.3421626 -0.038732897
000390 87 50 84 3e 27 72 88 bd f9 4f f1 be e9 fc e4 be
       0.25842687 -0.06662398 -0.47131327 -0.44724205
0003a0 75 61 c9 bf 52 38 e2 be 03 3a b0 be 14 0c 9e bf
       -1.5732867 -0.44183594 -0.3441926 -1.2347436
0003b0 0d 2f 85 bf 26 84 bc be 00 1a 3b bf 4b d3 a0 be
       -1.0404984 -0.3681957 -0.7308655 -0.31411204
0003c0 6e 3e d8 be a5 b4 a4 be 77 7a 00 be 8d b3 47 bf
       -0.4223513 -0.3216907 -0.12546717 -0.7800835
0003d0 5a 60 61 be 12 21 d1 be a8 b2 8f bf f1 32 62 bf
       -0.22009411 -0.40845543 -1.1226397 -0.8835898
0003e0 07 cf b9 be a9 2e 6b 3d f5 a6 a1 be 8c f5 a8 3d
       -0.36290762 0.057417545 -0.3157269 0.08249959
0003f0 24 f3 94 bf 5c be f0 be f3 fe 6d bf db 2e 19 3e
       -1.1636701 -0.47020233 -0.92967147 0.1495928

bias f4 [24]
000000 b7 3b a9 bf 4f 2f 80 bf aa 11 27 bf 7e 03 4e c0
       -1.3221349 -1.0014437 -0.6526133 -3.2189631
000010 d9 b9 77 bf 44 ed b7 bf f1 db b7 bf 0f d7 1b c0
       -0.96767956 -1.4369283 -1.4363996 -2.4350011
000020 80 45 ce bf 96 c2 24 bf d0 f4 bc bf 95 9b b9 c0
       -1.611496 -0.64359415 -1.4762211 -5.800242
000030 d9 e1 04 c0 6c 57 31 c0 9d 88 b4 bf 8a d4 16 bf
       -2.0762846 -2.7709608 -1.4104191 -0.5891806
000040 01 d2 0a c0 71 85 99 bf 65 9b 29 bf 3a 2f aa bf
       -2.1690676 -1.1993848 -0.6625274 -1.3295662
000050 b3 bd 1b 3f e2 25 39 c0 b5 24 46 bf a6 55 97 bf
       0.60836333 -2.8929372 -0.7739976 -1.1823013

weight f4 [64, 24]
000000 1e c2 70 bd f7 da af be a3 cb 3b be 5f 1b 22 be
       -0.058778875 -0.34346744 -0.183394 -0.15830754
000010 52 72 7c be 93 e7 07 bf 55 23 ed 3e c7 5c f7 be
       -0.24652985 -0.5308773 0.4631602 -0.4831297
000020 52 13 0e bf 16 9d 10 be c9 83 b3 be 02 d1 7f be
       -0.5549823 -0.14122424 -0.35061482 -0.24982074
000030 7d c8 f1 be 3d f6 1f bf 63 a1 2a be f6 95 b3 be
       -0.47223273 -0.62485105 -0.16663127 -0.3507535
000040 91 9a 14 bf 18 8c fa be cb 77 1a bf f2 8b 61 be
       -0.5804835 -0.48935008 -0.6033904 -0.22026041
000050 f6 d9 18 bf 89 44 4a be 18 8d b8 be 95 3f 03 bf
       -0.5970758 -0.19752707 -0.36045146 -0.51268893
000060 2f ce f5 bd 1d c0 36 be a6 be d7 be 30 b7 bb bd
       -0.12002217 -0.17846723 -0.4213764 -0.091657996
000070 23 aa 96 be 55 c6 fb bd 78 eb d1 bc 81 21 a4 be
       -0.2942668 -0.12293688 -0.025624976 -0.3205681
000080 e0 cc 15 be ce b8 23 be ea 27 26 3e 98 59 8e bc
       -0.14628935 -0.15988466 0.16226164 -0.017376706
000090 bd 57 51 bb d6 8a 1b be 01 a8 3a be d9 78 82 be
       -0.0031943165 -0.1518968 -0.18228151 -0.25482824
0000a0 33 53 8e be 33 68 27 3d 87 19 90 be b0 af 0e be
       -0.2779785 0.040870856 -0.28144476 -0.13934207
0000b0 1a 9d f1 bd df 3d 5c be 67 94 02 bf 71 30 a8 bd
       -0.11797543 -0.21507977 -0.51007694 -0.082123645
0000c0 ac ea 62 be a1 63 d8 bd 29 89 31 be 7e 25 62 be
       -0.22159833 -0.10565878 -0.17337479 -0.22084615
0000d0 a0 9f 8a be 0e dc a6 be 3b e4 09 3f a4 d2 82 bd
       -0.2707491 -0.32589763 0.5386388 -0.06387833
0000e0 47 63 3f be 64 92 f3 bd 3b 89 d0 bd 78 be 61 bd
       -0.18690215 -0.11893156 -0.10182425 -0.055113286
0000f0 93 54 ab be a0 b7 e8 be 44 ab d1 bd dd 23 e0 bd
       -0.33462963 -0.45452595 -0.102377445 -0.109443404
000100 59 22 f4 be 37 10 a9 be 80 3b 78 bd c8 b7 87 be
       -0.47682455 -0.33020183 -0.06060362 -0.265074
000110 06 08 02 bf 0d 5a 16 be 83 01 40 be 8c 19 2c bd
       -0.5079349 -0.14682789 -0.18750577 -0.04201655
000120 eb 8c 06 c0 bb 00 b1 be c1 98 31 bf e9 7c 30 bd
       -2.102351 -0.3457087 -0.6937371 -0.043087874
000130 27 cd 10 bf 0b 82 be be 79 fc 68 be 19 f2 23 c0
       -0.5656304 -0.3720859 -0.2275256 -2.5616515
000140 c5 c0 be 3e d6 fd 04 be ce 7d ad 3d db ef 19 bf
       0.37256446 -0.12987456 0.08471261 -0.60131615
000150 d1 7f e2 be 78 7a e0 be dc f5 35 bf 55 ce 92 bd
       -0.4423814 -0.43843436 -0.71078277 -0.07168261
000160 92 32 dc bf a2 f1 4e be d2 65 12 bf de dd 30 bf
       -1.7202933 -0.20209363 -0.57186615 -0.6908854
000170 83 9e cd bc a1 ff d4 bf d4 a0 44 be 25 d2 1e be
       -0.025099998 -1.6640512 -0.19201976 -0.15509851
000180 99 e9 df bf bf d7 31 3d 22 e0 c0 be d3 5d 04 bf
       -1.7493163 0.043418642 -0.37671 -0.51705664
000190 f0 09 95 bd 4f a8 7d bf 16 ed 04 be 01 fd b2 bf
       -0.07277286 -0.99084944 -0.12981066 -1.3983461
0001a0 6c b5 86 be f6 60 e3 bd a2 2e 05 3e 66 d0 2b be
       -0.2631029 -0.11102478 0.1300607 -0.16778716
0001b0 96 a3 6d be b0 6d 63 bd 8e bb ff bd 0a 68 0e 3f
       -0.23206934 -0.055524528 -0.12486945 0.556275
0001c0 e5 8a 8b bf 53 6a b2 bd a7 95 5f 3d 28 e1 d2 bf
       -1.0901762 -0.08711686 0.05458608 -1.6474962
0001d0 20 98 83 c0 94 f1 1f be a7 29 93 bf 61 b2 32 bd
       -4.11232 -0.15619498 -1.1497086 -0.043627147
0001e0 56 6f 24 bf 8c d2 bb 3c 31 be fc 3c 17 41 b8 3f
       -0.64232385 0.022927545 0.03085241 1.4394864
0001f0 66 fc db be 60 72 ba bf a0 bb 03 be bc fd cf bf
       -0.42966002 -1.4566154 -0.12864542 -1.6249309
000200 3d 53 e4 bd ff a1 4f be 38 e2 7a bd 52 fa bf bf
       -0.11148689 -0.2027664 -0.061250895 -1.4998267
000210 92 06 1e bf e1 1b 2e be 5d 33 c4 be c6 16 15 be
       -0.61728776 -0.17002822 -0.38320437 -0.14559469
000220 d6 c2 8c bf 8c a1 ae bd ae d6 50 c0 3d 47 c0 bd
       -1.0996959 -0.08526906 -3.263103 -0.093885876
000230 1b 7f 2c c0 89 4d aa bf 59 36 87 be af 3e 96 be
       -2.695258 -1.3304912 -0.2640865 -0.293447
000240 92 6e db be 74 a9 b1 3e 20 bd d4 be 68 60 99 be
       -0.42857796 0.34699595 -0.4155054 -0.29956365
000250 61 03 06 bf 65 87 73 bd 68 61 94 be f4 0d 5f bf
       -0.52348906 -0.059455294 -0.28980565 -0.87130666
000260 ca 6d 8b be ae 59 e5 bd 0b 3d 6a bd b3 67 a1 bf
       -0.272322 -0.11198746 -0.05718712 -1.2609771
000270 b2 2a 14 bd 97 94 8c be 03 20 91 bf ae 74 98 be
       -0.03617353 -0.27457115 -1.1337894 -0.2977652
000280 68 27 7b bf 95 f2 ba 3e 65 e1 35 bf a5 f7 2c bf
       -0.98107004 0.365132 -0.7104705 -0.67565376
000290 44 df ed be 8e ac b1 be dd df 39 bf 74 30 2a be
       -0.464594 -0.3470196 -0.72607213 -0.16620046
0002a0 6d e5 e0 be b2 a4 aa bb 33 12 a2 bf 03 17 90 bd
       -0.43925038 -0.0052076215 -1.2661804 -0.07035639
0002b0 e4 35 44 be 28 dc dc be a1 d0 c4 bd 2c e1 fb be
       -0.19161183 -0.43136716 -0.09610105 -0.4919523
0002c0 cd e6 9c bd 9c ff 0d bd 77 1b 2a be da a9 5d bf
       -0.07661209 -0.034667596 -0.1661204 -0.865873
0002d0 b5 0e 31 bf 03 80 19 c0 3b fc c8 be e7 b6 ae 3e
       -0.69163066 -2.3984382 -0.39254937 0.34123918
0002e0 dd 45 c4 bf 62 d2 14 3e 14 e6 9d be f5 99 8d bd
       -1.533382 0.1453338 -0.30839598 -0.069141306
0002f0 4e 96 a5 bf 3d 1d 48 bf cd fa 3b c0 2d d2 ea be
       -1.2936494 -0.78169614 -2.9371827 -0.45863476
000300 2d 4e 02 c0 29 e3 20 bd 45 c9 0e 3d 14 76 8b 3e
       -2.0360215 -0.039279137 0.034859914 0.27238524
000310 0c 6b 03 bd 23 49 a8 bf 79 bf 9a 3c c1 77 58 c0
       -0.03208451 -1.314732 0.01889013 -3.3823092
000320 f6 aa 6d be b5 09 8c be 0d 80 6b 3d 7e b9 a0 bf
       -0.23209748 -0.27351156 0.057495166 -1.2556608
000330 2c 56 2e be ad d9 b6 bf 3d ba 98 bf 9d 76 15 3d
       -0.1702506 -1.4285179 -1.1931835 0.03649007
000340 3a 73 53 c0 dc 89 56 be 88 f9 07 bd 96 47 97 bf
       -3.3039079 -0.20951027 -0.033196956 -1.1818721
000350 e0 23 06 c0 02 3d 48 c0 37 25 3e bf 71 89 40 be
       -2.0959396 -3.1287236 -0.74275535 -0.1880243
000360 30 28 38 c0 86 60 d5 3e 21 03 bf bf a5 28 8d be
       -2.8774529 0.41675204 -1.492283 -0.27570072
000370 fd 95 66 bf b7 bc df be 6a 56 50 be c7 2d c0 be
       -0.90072614 -0.43698665 -0.20345464 -0.37534925
000380 5d d7 6c bb 1f 37 63 be 1b 59 02 bc b4 df 64 c0
       -0.0036139109 -0.22188996 -0.007955815 -3.5761538
000390 f0 13 13 bd e3 5a a9 bf 44 06 06 bf 0d 62 3f bd
       -0.035907686 -1.3230861 -0.5235331 -0.046724368
0003a0 7e 1a 81 be 81 19 85 3d 3f 5b c7 bf 97 b1 e2 bf
       -0.25215524 0.06499005 -1.5574721 -1.7710446
0003b0 49 80 89 bf d0 93 5c bf 97 92 d5 c0 5f e4 2d be
       -1.0742275 -0.86163044 -6.6741443 -0.16981648
0003c0 0a b1 4c be 84 4b 5f bc c4 de ec bf ed e1 95 be
       -0.1998941 -0.013628844 -1.8505483 -0.2927393
0003d0 f7 88 fb bd 91 a9 cc bf 5b 81 28 be 94 67 2b bf
       -0.12281983 -1.5989248 -0.16455595 -0.6695492
0003e0 ed db 56 be 31 ed 98 bd d0 4f 1f 3e 2c f6 1d bf
       -0.20982333 -0.07467116 0.1555779 -0.61703753
0003f0 d9 9c 66 3d 17 37 0d 3d 49 2e a4 be db 4c 99 be
       0.056301925 0.034476366 -0.32066563 -0.2994145

bias f4 [64]
000000 82 d9 b9 bf a9 e2 34 bf 49 61 20 bf d7 3c 78 bf
       -1.4519503 -0.70658356 -0.62648445 -0.96967834
000010 5e 2a 9a c0 32 8c 74 bf 0c 30 6f bf 94 bc 27 bf
       -4.817672 -0.9552642 -0.9343269 -0.6552212
000020 db 06 0a c0 05 25 c5 bf 98 92 81 c0 c1 60 45 bf
       -2.1566684 -1.5401922 -4.0491447 -0.7710076
000030 81 19 1d c0 1e d9 ca bf ef 1a b6 bf a4 18 aa bf
       -2.4546816 -1.5847509 -1.422697 -1.328877
000040 ce 55 3c bf c5 5f 79 bf f7 40 a0 bf b0 72 b6 bf
       -0.7356843 -0.9741176 -1.2519826 -1.425375
000050 e0 37 88 be 11 a8 b2 be 15 5c 2d c0 0d f5 00 c1
       -0.2660513 -0.3489385 -2.7087452 -8.059827
000060 45 81 ee bf 7f 30 95 be df 65 bc bf c2 4b bc bf
       -1.86332 -0.29138562 -1.4718589 -1.471062
000070 20 9c 41 bf d2 1e b8 bf 16 43 e7 bf 34 b6 15 bf
       -0.7562885 -1.4384406 -1.8067348 -0.58481145
000080 3d a8 c3 be 10 f8 ca be 77 37 8e be ae ce 13 bf
       -0.38214293 -0.39642382 -0.2777669 -0.57737243
000090 31 a6 55 bf d0 b3 9a bf 3c fa 28 bf 37 e8 99 bf
       -0.8345671 -1.2086124 -0.6600683 -1.2023991
0000a0 4d 23 fb be 74 f5 a3 c0 90 c9 dc be a6 49 66 c0
       -0.4905037 -5.1237125 -0.4312253 -3.5982451
0000b0 ff bb 06 c0 0c ad 67 c0 a9 3a 2d bf 5e 92 88 bf
       -2.1052244 -3.619937 -0.67667633 -1.0669668
0000c0 a5 42 da bf 85 f1 84 c0 ed 2b 85 bf 2a ef 93 be
       -1.7051588 -4.1544824 -1.040403 -0.28893405
0000d0 9d 98 30 bf 46 aa fe bf 57 b3 f7 bf 02 72 67 c0
       -0.6898287 -1.9895713 -1.9351605 -3.6163335
0000e0 69 a7 1c bf 55 b0 d1 bf 5c 57 07 bd 9e 66 b0 bf
       -0.6119295 -1.6381937 -0.033042297 -1.3781316
0000f0 7f ad 50 bf c3 24 3f c0 6a 94 a4 be 85 e0 f9 bf
       -0.81514734 -2.9866188 -0.3214448 -1.9521643
